Data/Neural Network/solitaire_C.pt (torch, 25735 bytes, 3 tensors)

0.weight f4 [128, 15]
-0.0150143085 0.061286557 -0.15597443 0.17190619 0.14991182 0.035095103 0.24739797 0.10309266
0.080440715 0.25250298 0.035863645 -0.17269802 -0.22242215 0.122315474 0.14160508 0.11794349
0.022819024 0.21365693 0.034690317 0.19191459 0.1184887 0.02497858 0.04410578 -0.21995766
0.10363106 -0.022633638 -0.1826736 0.03928409 -0.23726997 0.17311917 0.16364595 -0.13564451
0.122751296 -0.095845625 0.20236929 -0.14406338 0.04260802 -0.22216316 0.069267794 -0.0656774
-0.07574482 -0.053084288 -0.10974105 0.18235582 0.02884529 -0.0069447877 0.21526435 -0.066614546
-0.10396135 -0.06970801 -0.13977052 0.14532873 -0.009782952 0.1335478 0.24639006 -0.07363168
0.19716066 -0.2092917 -0.22315958 -0.18260999 0.10251941 -0.22140303 -0.10897142 -0.048882246
-0.11084019 -0.23901764 0.039464004 0.07837612 0.18391363 0.026547644 0.18173136 0.041164856
0.16594285 -0.19060606 0.051691204 -0.03783999 0.015851988 0.23921412 0.2245812 -0.056908444
0.075288214 -0.060579386 0.0014119215 0.055781864 0.055407297 -0.09611713 -0.13629833 0.19215259
-0.032984238 -0.009216197 -0.23225701 0.05120298 0.014735945 0.088436686 0.14582838 0.013074163
0.01375856 -0.17744005 0.24531892 0.008256473 0.19282417 0.028388275 -0.18631834 -0.047844976
0.20968801 -0.22329968 0.19698235 0.048729125 0.027814312 0.2523759 0.21357831 0.24660264
0.1604759 -0.16149138 0.23879857 0.13687587 -0.06327612 0.029832575 -0.16111757 0.2112969
-0.16241276 0.048429295 0.032565657 -0.18118113 0.23511125 -0.2577959 -0.014885966 -0.18015087
-0.10336 0.0035400898 0.15117724 -0.05091899 0.15378058 -0.08055946 0.13282573 0.093230695
0.21606125 0.050128244 -0.011198149 0.03291569 0.105871245 0.023938233 -0.19783892 -0.22287638
-0.016971374 0.0019790137 -0.016254013 -0.19969648 -0.15930746 -0.06943211 -0.005484457 -0.099894844
0.07891031 0.116116896 -0.25538707 -0.1998884 0.18284667 0.0339741 -0.068512924 -0.10206814
-0.074034885 -0.025155555 -0.2196092 -0.07946827 0.2580566 -0.05744549 -0.14146909 0.16877496
0.05218846 0.015234044 -0.21026592 -0.22767904 0.2437245 -0.22664805 -0.0024412165 -0.2537145
0.1854681 0.12151603 -0.07075144 -0.07149338 -0.15654965 0.18299785 0.029763157 0.20102794
0.22976038 0.21566367 -0.24686864 -0.09348955 -0.11963828 0.24624026 -0.038948532 -0.119796775
0.032696836 0.08740639 -0.23831855 -0.19726449 -0.0034223157 0.10771475 -0.18468964 -0.01240523
0.11771447 0.13514233 -0.22374189 -0.23999548 -0.12856853 0.044139817 -0.099833496 -0.014861897
-0.15891922 -0.024414109 -0.10217675 0.18454218 0.18698473 -0.17917195 -0.10545224 0.2216971
0.17334856 0.19146328 -0.22268933 -0.0924265 0.22283056 -0.19076784 -0.15553835 -0.16378318
-0.09098799 -0.13847113 0.24957886 0.20226935 0.14928304 -0.2053939 -0.0026538589 -0.12678164
-0.25785887 -0.104203574 0.11472905 0.009638734 0.24762295 0.020792454 -0.18529886 0.10012935
0.11990034 -0.21211535 -0.040729657 -0.2446775 0.12494539 0.13480861 -0.0059875753 -0.22931887
0.15121086 0.08862369 -0.13137904 -0.01735208 -0.023486814 -0.13007937 -0.044527218 0.051596984
00000000: 93fe 75bc 9d07 7b3d c3b7 1fbe 2d08 303e
00000010: 7c82 193e e2bf 0f3d e555 7d3e 3f22 d33d
00000020: 1abe a43d 1248 813e c2e5 123d c0d7 30be
00000030: a2c2 63be 8980 fa3d ec00 113e 5b8c f13d
00000040: f6ee ba3c e2c8 5a3e 6f17 0e3d 4285 443e
00000050: 34aa f23d e19f cc3c 43a8 343d 953c 61be
00000060: 853c d43d 2e6a b9bc ca0e 3bbe 5be8 203d
00000070: e6f6 72be 2746 313e ce92 273e 65e6 0abe
00000080: 0865 fb3d b64a c4bd e539 4f3e 5a85 13be
00000090: bf85 2e3d bd7e 63be 46dc 8d3d df81 86bd
000000a0: 1a20 9bbd e96e 59bd eabf e0bd 7cbb 3a3e
000000b0: f54c ec3c 1a91 e3bb 426e 5c3e 356d 88bd
000000c0: b0e9 d4bd 13c3 8ebd 0120 0fbe 0ed1 143e
000000d0: ad48 20bc c1c0 083e ad4d 7c3e 35cc 96bd
000000e0: 7ce4 493e 9050 56be f283 64be 1dfe 3abe
000000f0: b2f5 d13d 7ab7 62be 682c dfbd c038 48bd
00000100: 2e00 e3bd 0ac1 74be 02a5 213d a983 a03d
00000110: db53 3c3e 727a d93c c917 3a3e 7b9c 283d
00000120: ecec 293e 3c2e 43be 28ba 533d 1bfe 1abd
00000130: 07dc 813c 8cf4 743e 9df8 653e d418 69bd
00000140: b530 9a3d 1722 78bd 3910 b93a 867b 643d
00000150: c3f2 623d 0fd9 c4bd ca91 0bbe a6c3 443e
00000160: 7b1a 07bd 88ff 16bc c8d4 6dbe 37ba 513d
00000170: 086f 713c 4b1e b53d 0954 153e 0435 563c
00000180: 956b 613c d8b2 35be e234 7b3e 2846 073c
00000190: b373 453e 878e e83c 3cca 3ebe 18f9 43bd
000001a0: 74b8 563e aca8 64be beb5 493e 3198 473d
000001b0: d7da e33c 6a37 813e 46b4 5a3e 6785 7c3e
000001c0: cb53 243e ff5d 25be 9d87 743e 3029 0c3e
000001d0: e996 81bd 7263 f43c 01fc 24be 375e 583e
000001e0: 884f 26be cc5d 463d 9163 053d 8c87 39be
000001f0: 01c1 703e d3fd 83be 44e4 73bc 7879 38be
00000200: 68ae d3bd da00 683b 35ce 1a3e 6e90 50bd
00000210: a878 1d3e 5cfc a4bd 7803 083e bcef be3d
00000220: 293f 5d3e 4653 4d3d 7178 37bc 9ad2 063d
00000230: 06d3 d83d 1d1a c43c 4996 4abe b539 64be
00000240: 8d07 8bbc 57b2 013b 2327 85bc 3c7d 4cbe
00000250: 7f21 23be 6c32 8ebd f6b6 b3bb ab95 ccbd
00000260: bb9b a13d b2ce ed3d 18c2 82be 8baf 4cbe
00000270: 283c 3b3e 6d28 0b3d 8150 8cbd 1a09 d1bd
00000280: 9a9f 97bd 0613 cebc 3ce1 60be 43c0 a2bd
00000290: ff1f 843e f64b 6bbd 46dd 10be 58d3 2c3e
000002a0: 91c3 553d 3698 793c f34f 57be b224 69be
000002b0: ea92 793e 6d16 68be d1fc 1fbb dee6 81be
000002c0: 59eb 3d3e 65dd f83d 22e6 90bd 1f6b 92bd
000002d0: 8d4e 20be ca63 3b3e ddd1 f33c 45da 4d3e
000002e0: 4e46 6b3e f0d6 5c3e 22cb 7cbe 7377 bfbd
000002f0: ea04 f5bd 6826 7c3e 7f88 1fbd 0358 f5bd
00000300: 1eed 053d 1f02 b33d c709 74be b4ff 49be
00000310: ee48 60bb 8d99 dc3d 481f 3dbe 4e3f 4bbc
00000320: 4914 f13d c062 0a3e 981c 65be 60c1 75be
00000330: 78a7 03be f4cb 343d 8175 ccbd 507f 73bc
00000340: b8bb 22be 1900 c8bc 0b42 d1bd a0f8 3c3e
00000350: ed78 3f3e da78 37be 58f7 d7bd 9104 633e
00000360: 4982 313e f30e 443e ac08 64be 1b4a bdbd
00000370: b22d 643e a558 43be 7245 1fbe c7b6 27be
00000380: e957 babd 60cb 0dbe 9a91 7f3e b21f 4f3e
00000390: a7dd 183e c752 52be 5dec 2dbb 0cd3 01be
000003a0: 1406 84be af68 d5bd 10f7 ea3d c8eb 1d3c
000003b0: df90 7d3e f054 aa3c fcbe 3dbe 9e10 cd3d
000003c0: 4f8e f53d c434 59be 24d4 26bd bd8c 7abe
000003d0: 5ee3 ff3d 450b 0a3e 6c33 c4bb 91d2 6abe
000003e0: 05d7 1a3e 5680 b53d 3a88 06be f325 8ebc
000003f0: 6b67 c0bc 8733 05be 2c62 36bd 5c57 533d

2.weight f4 [32, 128]
0.07330058 -0.024755275 0.06047506 -0.00978697 -0.030331315 -0.06837681 -0.085912965 0.031232215
0.029129114 0.019237326 -0.051016875 0.087398365 -0.09816353 0.06897502 -0.05488195 -0.07765678
-0.0632338 0.07125009 -0.09540181 0.0070208292 -0.009369458 0.0073208767 -0.07011895 0.033411145
-0.027837645 -0.09375255 -0.0690148 -0.08584172 0.05681904 -0.034135137 -0.011281621 0.06008664
-0.032089196 0.039021768 -0.048864614 -0.09144742 0.016829357 -0.06717842 -0.02458762 0.058814775
-0.048866615 -0.06777409 0.06587123 -0.051590767 0.08665382 0.07015624 0.010345419 0.030413905
0.055184938 -0.0007871172 0.07727138 -0.056683525 0.0036562493 -0.050116025 -0.061007414 0.026239645
0.020942125 0.07058317 -0.009631447 0.071281224 0.0051502096 0.0359378 -0.034646735 -0.0672665
0.020462032 -0.05103166 -0.006715904 0.03495979 0.03992524 0.05201345 -0.08603643 -0.053502347
-0.0027732418 -0.091068484 -0.035945717 -0.021535773 0.016751504 0.011259879 -0.0009817509 -0.006522107
-0.050316036 0.02295976 -0.026820574 -0.055306528 -0.0068993773 0.07739422 0.040982757 -0.087164894
-0.007599083 -0.087102376 -0.049220666 -0.0023892503 -0.06081988 0.0368232 -0.04945321 -0.06882762
0.06541622 0.05091676 0.050822504 -0.07077386 -0.01815285 -0.026475599 -0.078223705 -0.013857826
0.020527735 -0.06438181 -0.0024454957 0.008998425 -0.03406798 -0.050822705 0.048434347 -0.058974992
-0.07811191 0.06665594 0.005035808 -0.006793633 -0.08651754 0.03380741 0.015312014 0.045623336
-0.030550828 -0.023423234 0.043430377 0.02758696 0.045915354 0.06486758 -0.02707371 0.045086127
0.015935289 0.039002642 -0.07335302 0.08588857 0.08553219 -0.005942207 -0.04433262 0.06411531
0.027477974 -0.0446573 0.05665211 0.05293337 -0.031181183 -0.039609924 -0.058527604 -0.06501664
0.080498435 0.0013411307 -0.026691673 -0.019424943 0.011534317 0.007876561 -0.014248856 -0.0362325
0.0006923105 -0.07083335 -0.062169515 -0.092103906 0.0044878633 -0.052430578 0.021528002 0.041399244
-0.09571727 -0.055237178 -0.04060438 0.004416098 0.06749402 0.082756534 0.07148907 -0.013966754
0.07687136 -0.029371385 -0.040938467 -0.08051381 -0.0491266 -0.030411165 0.007965592 0.016043697
-0.085575804 0.08742502 -0.076358125 -0.08615768 0.03147352 -0.01022586 -0.082087696 0.02913186
0.029228782 0.015996432 0.020250374 -0.029186353 -0.0561495 0.024474874 0.06159328 0.0453265
-0.007303581 0.045916867 -0.020671755 -0.07759385 -0.02712469 0.054553486 -0.06413907 -0.07579056
0.007931331 -0.09730882 -0.06334475 0.027634613 0.065298446 0.06875634 0.07044207 0.05195451
-0.038549256 0.02006871 0.03237199 0.049634162 0.004422807 -0.07548323 0.055444695 0.062060717
-0.04244582 0.015386699 -0.023231441 0.03376661 0.044910744 0.05544184 0.086995244 0.028627226
0.03357237 0.069639415 -0.10005553 0.033813726 0.021164533 0.05577445 0.03365771 0.017133815
0.019930182 -0.07039473 -0.08028846 -0.073991664 -0.10286507 0.040782794 -0.0660816 -0.004406524
-0.05794641 -0.092501104 -0.00011883802 -0.051655546 -0.090362385 0.024112515 -0.054813005 0.013880479
-0.022653785 -0.030642917 -0.029957047 0.077338144 -0.022009514 -0.08253767 -0.047422346 0.06758764
00000000: 9d1e 963d 93cb cabc b2b4 773d 8759 20bc
00000010: 6179 f8bc 2409 8cbd 23f3 afbd b4da ff3c
00000020: 2ea0 ee3c 9997 9d3c 12f7 50bd eafd b23d
00000030: f609 c9bd c642 8d3d e5cb 60bd 850a 9fbd
00000040: b980 81bd 91eb 913d 0662 c3bd fc0e e63b
00000050: 5b82 19bc f7e3 ef3b 869a 8fbd 20da 083d
00000060: c60b e4bc 5601 c0bd a257 8dbd c9cd afbd
00000070: 15bb 683d 49d1 0bbd 8cd6 38bc 691d 763d
00000080: f66f 03bd 4ad5 1f3d 4326 48bd c948 bbbd
00000090: b8dd 893c d794 89bd fa6b c9bc c3e7 703d
000000a0: 5c28 48bd 24cd 8abd 7fe7 863d d750 53bd
000000b0: 8f77 b13d 13ae 8f3d d57f 293c 9526 f93c
000000c0: 9a09 623d 8b56 4eba 7540 9e3d fc2c 68bd
000000d0: af9d 6f3b 7646 4dbd e9e2 79bd 86f4 d63c
000000e0: d28e ab3c e98d 903d 37cd 1dbc e4fb 913d
000000f0: 17c3 a83b 8433 133d bce9 0dbd 05c3 89bd
00000100: fe9f a73c 9306 51bd 1611 dcbb ff31 0f3d
00000110: a688 233d 0e0c 553d de33 b0bd 4725 5bbd
00000120: 47bf 35bb 1d82 babd d13b 13bd ca6b b0bc
00000130: 733a 893c 5b7b 383c 18ae 80ba 66b7 d5bb
00000140: 3018 4ebd 1b16 bc3c d2b6 dbbc 1989 62bd
00000150: 2c14 e2bb dc80 9e3d 89dd 273d 8283 b2bd
00000160: ba01 f9bb bb62 b2bd 9c9b 49bd f894 1cbb
00000170: 441e 79bd ecd3 163d 738f 4abd 7ff5 8cbd
00000180: f0f8 853d 188e 503d 422b 503d e3f1 90bd
00000190: 49b5 94bc 5be3 d8bc c033 a0bd ef0b 63bc
000001a0: c829 a83c 9cda 83bd 9c44 20bb 216e 133c
000001b0: de8a 0bbd 782b 50bd 1863 463d c38f 71bd
000001c0: 23f9 9fbd e982 883d 6b03 a53b 209d debb
000001d0: 1c30 b1bd a479 0a3d 3edf 7a3c 89df 3a3d
000001e0: bb45 fabc 15e2 bfbc 0de4 313d 0cfe e13c
000001f0: bd11 3c3d 4bd9 843d afc9 ddbc 3bac 383d
00000200: b98a 823c 3cc1 1f3d 1c3a 96bd 59e6 af3d
00000210: 802b af3d d8b6 c2bb 1f96 35bd e34e 833d
00000220: 7d19 e13c 93ea 36bd 0b0c 683d a9d0 583d
00000230: ae6f ffbc 043e 22bd a4ba 6fbd 7227 85bd
00000240: 5ddc a43d e1c8 af3a 7fa8 dabc 0f21 9fbc
00000250: 6ffa 3c3c b10c 013c 0974 69bc 8868 14bd
00000260: 2c7c 353a 1311 91bd 76a5 7ebd f9a0 bcbd
00000270: ed0e 933b 72c1 56bd 7e5b b03c 4192 293d
00000280: 6b07 c4bd 6140 62bd c750 26bd eab4 903b
00000290: 4e3a 8a3d 427c a93d dd68 923d d0d4 64bc
000002a0: bb6e 9d3d 429c f0bc 18af 27bd 6de4 a4bd
000002b0: f938 49bd d620 f9bc 1d82 023c 126e 833c
000002c0: 5e42 afbd e40b b33d a661 9cbd 7073 b0bd
000002d0: 61ea 003d 5e8a 27bc 981d a8bd f0a5 ee3c
000002e0: 3371 ef3c f30a 833c 1de4 a53c 3818 efbc
000002f0: 05fd 65bd 887f c83c 3c49 7c3d 48a8 393d
00000300: e152 efbb 5313 3c3d d057 a9bc 86e9 9ebd
00000310: 9934 debc 7a73 5f3d 585b 83bd 1538 9bbd
00000320: 6af2 013c d949 c7bd e4ba 81bd fc61 e23c
00000330: 31bb 853d 20d0 8c3d ef43 903d 41ce 543d
00000340: d3e5 1dbd 2367 a43c 7e98 043d 314d 4b3d
00000350: 32ed 903b f496 9abd fa19 633d 6133 7e3d
00000360: abdb 2dbd 7e18 7c3c dd4f bebc db4e 0a3d
00000370: 54f4 373d fc16 633d 902a b23d a583 ea3c
00000380: 2e83 093d 1c9f 8e3d eae9 ccbd 4380 0a3d
00000390: 3e61 ad3c c073 643d abdc 093d 375c 8c3c
000003a0: 9f44 a33c 1d2b 90bd 476e a4bd f188 97bd
000003b0: ecaa d2bd dc0b 273d ca55 87bd 9a64 90bb
000003c0: 3759 6dbd 3871 bdbd ad38 f9b8 c494 53bd
000003d0: ea0f b9bd 9c87 c53c 9a83 60bd f36a 633c
000003e0: 6e94 b9bc db06 fbbc 7b68 f5bc 7663 9e3d
000003f0: 4c4d b4bc 8309 a9bd ef3d 42bd 636b 8a3d

4.weight f4 [1, 32]
0.032372314 -0.018894937 0.06734194 -0.025274698 0.102351144 0.13087656 0.038148124 0.028562253
0.2230449 0.27461195 0.19136958 0.18494853 -0.10326988 0.12216954 0.27442664 0.006187591
0.19391617 0.0667343 0.059920087 0.0012085417 0.25951827 0.13565099 0.1108045 0.13608414
0.10553494 -0.07155626 0.13942961 -0.003328068 -0.122312896 -0.030797245 0.22282428 0.11016323
00000000: d598 043d 8ec9 9abc 92ea 893d e20c cfbc
00000010: 7a9d d13d 8104 063e 3541 1c3d 63fb e93c
00000020: e265 643e f099 8c3e 63f6 433e 2663 3d3e
00000030: 297f d3bd 0634 fa3d a681 8c3e 46c1 ca3b
00000040: f691 463e feab 883d c46e 753d ee67 9e3a
00000050: 94df 843e 18e8 0a3e 78ed e23d a459 0b3e
00000060: b422 d83d 178c 92bd a3c6 0e3e b71b 5abb
00000070: 2f7f fabd 814a fcbc 0c2c 643e 429d e13d
