Data/Neural Network/solitaire_B.pt (torch, 25735 bytes, 3 tensors)

0.weight f4 [128, 15]
00000000: 59ee 12bd 0dc6 523e 4751 60be 44a1 8c3d
00000010: 361e da3d 6ce5 003d d5e3 a4bd 3615 d53d
00000020: cd2e 323e dd5a 2c3e a663 26bd f080 223e
00000030: 2f09 053d 5dc3 e23d 215b 4c3d 610c 833e
00000040: 996c 123e 7cc1 1abe 2f19 a5bd 8230 1bbe
00000050: 43f9 a9bd ae12 45bc 4993 c0bd 1a06 b03d
00000060: 6431 83be 59b8 5d3e d151 9a3d 690f 28be
00000070: 2ffc 59be 4f7a 823e 68ef bdbd e63a 39bd
00000080: 5c2f 553e a197 283e 0bd9 2e3e f824 3cbd
00000090: 5f08 7cbe 90bb 4c3c d31d 803e 75e5 23be
000000a0: 8ffa 1f3e ae41 a6bb e284 77bc da87 12be
000000b0: f6b2 663e 3519 f03d dc70 17be bd7f 2dbd
000000c0: 7f62 1bbe a020 75be 6938 70be 2d7e 223e
000000d0: f4e3 d53d 497a e03d 3e52 46be 675f 1d3e
000000e0: caf9 e83d 1bf3 653e 3be6 583e 5701 4cbc
000000f0: 462e 813e 4dc4 d63d b036 453e 4f16 7e3e
00000100: 6d5e 73be c80d 6bbe e832 68be 18dc 70be
00000110: b2d9 3ebd d655 92bd b6fb 293e f55a 4bbe
00000120: 26ab 7b3e 826e babb cda8 9c3d 0f9f 83be
00000130: c043 75be 3f74 2e3e 2431 0e3e f2f3 f2bc
00000140: a0a7 5f3c 10e9 1d3b 5875 7dbe 259e 30be
00000150: ffbd 48be b20d 05be 2b31 273e b556 5ebe
00000160: 7454 82be a1a2 6bbe f210 2d3e 9bfa 53bd
00000170: 7f57 45be c6d9 50be 9c0e 383e af6a 7ebd
00000180: ea3d e6bd 3275 25be bce4 7dbe 0788 3fbe
00000190: 9d62 713e 4546 2c3d 0ca9 8ebd 78e7 1d3e
000001a0: 3d2b c1bd 245d 81be a9f9 59be ba27 6fbd
000001b0: 4ff9 5d3c 470d 7a3e 05f0 513e 9c16 db3d
000001c0: 6235 293d 4de4 f7bd 2a3a 713e b678 b5bd
000001d0: 4511 54be 3e24 d33b 314e d9bd aacb 5d3e
000001e0: 99d4 53bc 2512 b7bb 5e5b 68be b6ce 82be
000001f0: 9e21 23be 80f6 0cbe 3ed1 153d 71f7 1ebe
00000200: dde3 a73d c356 4dbe 5aa2 55be 3165 d83c
00000210: f235 193e 3d78 c3bd b9ad 11be e0b0 3e3e
00000220: 9349 113c d3de 0cbe e30e 723e 6070 1a3d
00000230: 2431 783e b761 5bbe 5707 1abe 6d38 bfbd
00000240: 02da 2ebd 1e75 c13d b432 483e 17c4 b1bd
00000250: cc2b d5bd 5a68 2fbe 93ce cfbd d833 733e
00000260: 1c29 223e 3112 793e 3ff3 2dbe 37e7 9f3d
00000270: 927f 0ebd 7487 373d 6237 773e 4ea2 823e
00000280: 844f 193e 3ed4 3bbd eab5 8e3d 1c1a 2abe
00000290: 24eb 5dbe 0dee 4c3e b63c 2abd a180 8fbd
000002a0: 4924 c33d 7547 223e 1edf 863d 1496 16be
000002b0: 90d7 773e 5357 2dbe 4a3f 48be ffd4 bbbc
000002c0: c929 da3d bf03 28bc f161 1dbd 7e9d 12be
000002d0: 0a43 0abe 1b0b 473e 4d5c 883d fc63 fdbd
000002e0: 0554 6b3e 43da c43d 2f87 2e3d 7b5d 253e
000002f0: 04fa 12be 7742 13be b4b6 27be 57a2 5e3e
00000300: ef4f debd 86f3 9d3d b600 1c3d d3e6 bfbd
00000310: 3e8e 353e d12d 0fbd 072a 3ebe b2ff 5bbe
00000320: e8c9 72bd 5172 943d 070e bcbd 6e4d b83d
00000330: be31 0abe aadd 4ebe 2f65 10be 630f 573e
00000340: 73dd d63d efa5 9bbd 2b87 10bd d42b 1f3e
00000350: eb97 51be e250 773e a0df 393e 32f6 a43d
00000360: 17df 823d aa65 f73d 6e5b 3abe 7648 83be
00000370: a9ab 5dbe 1fdc d8bd 833a eb3c 6847 62be
00000380: 593b 3ebe 0b5c 12be dbde 053e 50a8 33be
00000390: 7b0f 8b3d 6ad7 d6bd f392 993d 0a70 483e
000003a0: 2cab 71be 5b93 83be bc41 3d3d 83f5 773e
000003b0: 0dd0 0bbe e34c e43d b582 193d ae54 1c3c
000003c0: 3418 3ebc d593 613e 73e6 26be dbe3 7cbe
000003d0: f42a f1bd 24cd c8bc 29e8 a23d e93b 723e
000003e0: 28b2 7cbe 7e3d 35be 4bcc 383e 7919 ae3d
000003f0: b0b0 b0bd 2435 4a3e a8a7 1abc 9846 16be
-0.035871837 0.20583363 -0.21906005 0.068666965 0.106502935 0.031468794 -0.08051268 0.10404436
0.17400666 0.16831537 -0.040622376 0.15869498 0.03247946 0.11072419 0.049891595 0.25595382
0.14299239 -0.15112871 -0.08061444 -0.15155223 -0.08299496 -0.012028379 -0.094030924 0.08594914
-0.2562362 0.21652354 0.075351365 -0.16412129 -0.21287607 0.2548394 -0.09274179 -0.045222186
0.20818847 0.16464092 0.17074983 -0.045933694 -0.24612568 0.01249589 0.25022754 -0.160055
0.15622924 -0.0050737476 -0.015107365 -0.14309636 0.22529206 0.11723558 -0.14789146 -0.04235815
-0.15174292 -0.23938227 -0.23459019 0.15868445 0.10443869 0.10960824 -0.1936731 0.15368424
0.113757685 0.22456019 0.21181576 -0.012451491 0.25230616 0.1048666 0.19259143 0.24813198
-0.2376649 -0.22954476 -0.22675669 -0.23521459 -0.04659433 -0.07145278 0.16599926 -0.19858916
0.24577007 -0.005689443 0.07649384 -0.2570729 -0.23951626 0.17036532 0.13885933 -0.029657338
0.013650805 0.0024095215 -0.24751794 -0.17247827 -0.19603728 -0.12993506 0.1632735 -0.21712764
-0.25455058 -0.23011257 0.16900995 -0.051752668 -0.19271658 -0.20395574 0.17974323 -0.06211346
-0.11242278 -0.16157988 -0.24794286 -0.18704234 0.23572774 0.0420592 -0.06965837 0.1542033
-0.09432075 -0.25266373 -0.21286644 -0.058387496 0.013548209 0.24419127 0.20501716 0.10697672
0.041310675 -0.12104092 0.23557344 -0.088609144 -0.20709713 0.0064435294 -0.10610617 0.21659723
-0.012929105 -0.00558688 -0.22691104 -0.25548333 -0.15930793 -0.13765907 0.036576502 -0.15524079
0.08197758 -0.20052628 -0.20862713 0.02641544 0.14961985 -0.09544418 -0.14226426 0.1862216
0.008867639 -0.13756876 0.23638491 0.037704825 0.24237496 -0.21423994 -0.15041862 -0.09336934
-0.042688377 0.094461665 0.19550592 -0.08679979 -0.10408744 -0.1712965 -0.10146823 0.23750246
0.15835994 0.24323346 -0.16987322 0.078077726 -0.03478963 0.044806913 0.2414222 0.25514454
0.14971739 -0.045856707 0.06968291 -0.16611522 -0.2167173 0.20012684 -0.041561805 -0.07006956
0.09528405 0.15847571 0.06585525 -0.14705688 0.24203324 -0.16927843 -0.19555393 -0.022928713
0.10652501 -0.010254799 -0.038423482 -0.14317891 -0.13502136 0.1943783 0.0665823 -0.12372586
0.2298127 0.096119426 0.04260939 0.16148941 -0.14353186 -0.14380823 -0.1637829 0.21741615
-0.1085509 0.07712464 0.038086616 -0.09370198 0.17730042 -0.034955803 -0.1857072 -0.21484259
-0.059274584 0.072483666 -0.09182363 0.089991435 -0.13495538 -0.20201746 -0.14101098 0.21001963
0.10491457 -0.07600009 -0.035285156 0.15544063 -0.20468108 0.24151948 0.18151712 0.080547705
0.06390207 0.12079938 -0.1819894 -0.2564122 -0.21647514 -0.1058886 0.028714424 -0.22097552
-0.18577327 -0.14292924 0.13073294 -0.17544675 0.06790062 -0.10490306 0.074987315 0.1957399
-0.23600453 -0.2569836 0.046205267 0.24214749 -0.13653584 0.111474775 0.037478168 0.009541674
-0.01160245 0.2202905 -0.16298847 -0.24696295 -0.11775771 -0.024511881 0.07954437 0.23655666
-0.24677336 -0.17699239 0.18046682 0.08500952 -0.086274505 0.19746834 -0.009439386 -0.14675367

2.weight f4 [32, 128]
00000000: 1db9 9abd a5e3 9c3d f467 b33b 5cc4 993d
00000010: 91de b13c e8de 80bd a869 783c 1cf4 9e3d
00000020: bb00 583c 69e9 76bd f2ef e43c 3e13 2bbd
00000030: ea10 84ba 461c 6cbb b486 963d 4056 e23c
00000040: ffd8 8b3d ba51 76bd 3172 61bd 69b0 b53d
00000050: f79f 9e3c 247f 523d ac8b 813d 95e2 33bd
00000060: 0e28 40bc b125 8bbc 736e 783d 1799 a23c
00000070: 0020 7839 d7c8 253d ed33 ff3c 6e14 70bd
00000080: 8f90 efbc 14da 2c3d 5a90 773d 7639 3d3d
00000090: 33ef 4f3a d857 08bd 03b9 44bd 6154 373d
000000a0: 712e 0d3c 0a2e 42bd ac41 113d d78f df3c
000000b0: f594 523c b046 cfbc d7d3 933c b5ed 90bd
000000c0: e319 143c d8d4 713d 957b 3cbd c6e9 5b3c
000000d0: 2495 a13c ae8a 9dbd dace ac3d e3de 8abd
000000e0: bfa6 a1bd f85e 983d f316 15bd 9e1f a73d
000000f0: f7db 92bd 4e47 8cbc 48e4 c4bc 68cd 27bc
00000100: c740 da3b 8801 ab3d f830 aabd 5c19 323d
00000110: 1e98 96bd 6ab7 893d e4f9 3a3c 5fd7 b5bc
00000120: 9e99 90bd 0c3c 3c3d e5e9 9d3d a72d debc
00000130: e6c0 6ebd 436e e43c b1c7 b2bd b951 703d
00000140: df04 b2bd ee23 8fbd 446c 55bd b501 9c3d
00000150: 4f6f c0ba e321 f1ba d14d 21bd 97dc 2ebd
00000160: 22ef 8bbb 1d4c 963d f713 323c 2f1b a13c
00000170: 9733 8dbd ec5f 07bd cce9 e4bb 7044 c43c
00000180: 4cec 4d3d 037d cb3b 26b2 11bc 54ca 47bd
00000190: ebe4 4a3d 42b4 87bd 70f2 183d d9e8 0abc
000001a0: 3845 9e3d 81d0 acbd 4456 343d 054f 8d3d
000001b0: 1061 21bb 79ea 25bd 2498 9c3d 14a4 5ebd
000001c0: e35f a3bd f1fe 96bd f182 153c 97a0 4c3d
000001d0: 1fd2 8c3d 5f6c 97bd a131 fbbc 730f 243d
000001e0: 4084 98bd a8e3 883d 7aa3 32bd 950c 73b6
000001f0: 0a45 283d 9622 1dbd 2806 c13b 6548 97bd
00000200: 7be3 debc 2c1e a53d e500 0d3c 172e 613d
00000210: eb65 7d3c d67c 64bd 4ca9 24bd bbf1 063d
00000220: 9056 9a3d be21 87bc 1251 ac3d 8654 73bd
00000230: 0b9c abbc 6da8 b3bd e3d7 a63d d1b3 af3c
00000240: def6 93bd 491d 443d ab97 9ebd c20a 19bd
00000250: cf31 c13b 58fa b83c fd59 53bd da00 aebd
00000260: f0f8 873c 231c 023c e41c 2b3d 6c8e fb3b
00000270: b853 adbd e4a4 823d bdc6 fabc 477c 47bb
00000280: 77cb 68bd a654 743d 42e4 ab3d a648 b23d
00000290: e709 893c 5b5a b3bd c5fb 58bd e020 4dbc
000002a0: b332 8f3d 7ee1 b3bd bb2e 9fbd 7e89 ab3d
000002b0: d221 72bd 3bc7 203d fbad e13c 106d 9f3d
000002c0: cdf5 9cbd 8edb e53c 99d7 aa3d b0b7 bfba
000002d0: 93bc 1cbd 7e1e 133d 3f30 9bbd 111b febc
000002e0: 2106 563d 40ed 8dbd bc52 c83c 7eb6 693d
000002f0: 2e83 a23d dbde a33d 9816 763c 068e 72bb
00000300: 4e28 aebd 4185 90bd 86f6 d63c 5013 dc3c
00000310: 102b 123d d59d bbbb c4be cb3c c82a 873d
00000320: f6e1 f3bc d244 0abd a9bb aa3d 7bd1 613d
00000330: da80 aabd fba9 acbc 5aaa b83b f8ce e53b
00000340: 2a9c a33d 1ccc c93c f621 a53d 895d a5bd
00000350: 8f43 ac3c ae40 1fbc fe27 6b3b e002 4abc
00000360: be1e d2bc 95a6 1cbc 38c0 b63c 401f ad3d
00000370: 0f2b c7bc 7cd8 73bd 3a26 8fbd b52d 4ebc
00000380: 086c 1dbd 3c7d 51bd 41d9 31bd 8c92 493d
00000390: 6880 a9bd d756 c5bc 4e96 39bd 9d44 65bd
000003a0: 3305 193d 6b4a 0b3d 62e1 073c ee0b 113c
000003b0: ca23 3abd 7969 afbd fbda 473c 7025 e9bc
000003c0: d4c9 e3bc e670 02bc 622b 9c3c c7a9 143d
000003d0: e758 adbc f42f 80bd 4824 ba3d 7744 0c3d
000003e0: 050a 80bd 8a61 a93d bf85 38bc 36f7 e63c
000003f0: ca66 adbc 5f8d 2f3d 28cf 9abd 9151 62bd
-0.07554839 0.07660607 0.0054750387 0.07508156 0.021712573 -0.06292516 0.015161909 0.07761404
0.013183768 -0.06028119 0.027946446 -0.041766398 -0.0010075842 -0.0036027594 0.07349911 0.027629018
0.06828498 -0.060136534 -0.055040542 0.08871538 0.019363387 0.051390782 0.063254684 -0.043917257
-0.0117283 -0.016985746 0.060652208 0.01984839 0.00023663044 0.04047474 0.03115269 -0.058613233
-0.029243736 0.042200163 0.0604404 0.046197377 0.0007932067 -0.0332869 -0.048028003 0.044758204
0.0086170295 -0.047407188 0.03546302 0.027290268 0.012852897 -0.025302261 0.018045349 -0.07076589
0.009039375 0.059040874 -0.046016295 0.013422435 0.019724436 -0.07692467 0.08437891 -0.067807935
-0.078931324 0.07439989 -0.03639884 0.081603274 -0.07170861 -0.017123844 -0.024034634 -0.010241844
0.006660554 0.083499014 -0.08310121 0.043481216 -0.07353233 0.067244366 0.011412118 -0.022197424
-0.0706055 0.045955703 0.077106275 -0.027121378 -0.05828943 0.027884608 -0.08729494 0.058671687
-0.08692335 -0.06989275 -0.052105203 0.07617513 -0.001468161 -0.001839694 -0.039380852 -0.04269084
-0.00427045 0.07338736 0.010869018 0.019666282 -0.068946056 -0.033050463 -0.0069858786 0.023958415
0.05027418 0.006209971 -0.008892572 -0.04877694 0.04953472 -0.06626178 0.03734058 -0.008478367
0.07728046 -0.084382065 0.04402758 0.068998374 -0.0024624504 -0.040506814 0.07646206 -0.054355696
-0.07977273 -0.07372845 0.009125457 0.049957838 0.06876015 -0.07393717 -0.030663313 0.040053796
-0.074471 0.06684047 -0.043612935 -3.6217145e-06 0.041081466 -0.03836306 0.0058906265 -0.07386855
-0.02720808 0.080623955 0.00860617 0.054975595 0.015466194 -0.055783115 -0.040200517 0.032945376
0.07536042 -0.016495582 0.084139004 -0.05940678 -0.02094843 -0.08772359 0.08146646 0.021448048
-0.072248206 0.04787949 -0.07743772 -0.037363775 0.00589583 0.02258031 -0.05159949 -0.08496256
0.016598195 0.007941279 0.0417756 0.00767689 -0.08463234 0.06379107 -0.030612344 -0.0030439065
-0.056834664 0.05965104 0.08393146 0.08705263 0.016728355 -0.08757468 -0.05297448 -0.012520045
0.06992092 -0.087832436 -0.07772585 0.08375834 -0.059114285 0.0392525 0.02754878 0.07784474
-0.0766407 0.028058793 0.08341903 -0.0014626887 -0.038265776 0.03591775 -0.075775616 -0.031018766
0.05225194 -0.069300175 0.024453513 0.057058804 0.07935177 0.08001491 0.015020035 -0.0037010922
-0.08503781 -0.07056666 0.026240598 0.026864678 0.0356856 -0.005725602 0.024871238 0.06599957
-0.029770833 -0.03375704 0.083365746 0.055131417 -0.08325358 -0.021077147 0.005635542 0.007013198
0.0798877 0.02463346 0.08063118 -0.08074481 0.021028308 -0.009720011 0.0035881991 -0.012329787
-0.025649425 -0.009561201 0.022308454 0.08453226 -0.024312524 -0.059532627 -0.06989713 -0.01258414
-0.038433105 -0.051144823 -0.04342008 0.049212024 -0.08276445 -0.02408926 -0.045309357 -0.055973638
0.037358474 0.034006517 0.008293482 0.008852942 -0.045444287 -0.08565039 0.012198205 -0.028460234
-0.0278062 -0.007961487 0.019063655 0.036294725 -0.021160556 -0.06259146 0.09088951 0.03424498
-0.06251911 0.08270557 -0.011262356 0.028194051 -0.021167178 0.04285943 -0.07559043 -0.05525357

4.weight f4 [1, 32]
00000000: 0116 9fbd cdb8 1fbe e605 bd3d 5dc3 113e
00000010: f6b5 7c3d 6cb9 043c 9861 003e 90c4 ddbc
00000020: f414 31bc 2929 d6bd 40b3 39be 9bc8 013d
00000030: 39fc 14be e53c 82bd fb86 c83d e26e 96bd
00000040: 5a3c d93d 9df1 18be 2172 83bd 9cc2 38be
00000050: 2424 28be 4441 7e3d 013b 6739 2695 a63c
00000060: 8439 3bbd 29d7 163c 2036 39bd 4f3e 9d3d
00000070: 73aa 7a3d 47bd be3d 486c 20be 01e5 efbc
-0.07767869 -0.1559784 0.09229641 0.14234681 0.06169697 0.008100849 0.12537229 -0.027071267
-0.010808218 -0.104570694 -0.18134785 0.031685453 -0.1454934 -0.06359271 0.097913705 -0.07345368
0.10607214 -0.14935918 -0.06418253 -0.18042988 -0.16420037 0.06207396 0.00022051857 0.020334791
-0.045709148 0.009206572 -0.045217633 0.076779 0.06119771 0.093134455 -0.15666306 -0.029284002
