Data/Neural Network/solitaire_A.pt (torch, 25735 bytes, 3 tensors)

0.weight f4 [128, 15]
000000 9c 70 2a 39 d3 41 75 3e 4d 0b 18 3e c3 ce 50 be
       0.00016254414 0.23950891 0.14848061 -0.20391373
000010 b8 91 69 3e 6c 46 b0 bd 5d 3c 54 3e 5c 01 8a 3e
       0.22809494 -0.08607182 0.20726152 0.26954162
000020 8b 36 c6 bd 8a a5 e2 bd d7 ed 57 be a8 cc 67 3e
       -0.09678372 -0.1106673 -0.21086822 0.22636664
000030 0c 70 62 be 95 97 5d 3e 46 47 07 bc f3 f7 41 be
       -0.22113055 0.21639855 -0.008256739 -0.18942241
000040 0c 96 5b 3e c7 34 85 bb dd b2 c4 bc 1f b4 08 be
       0.21443957 -0.0040651294 -0.02401107 -0.1334996
000050 94 85 25 be 52 f7 62 3e 99 a7 fc 3d 08 f9 22 be
       -0.16164237 0.22164658 0.12336654 -0.1591531
000060 e8 5e a0 bc f3 c9 c8 bd f8 9c cc bd 3c b9 01 3d
       -0.019576505 -0.09804144 -0.09990877 0.031670794
000070 9f 6b 31 be ea 96 64 be a0 6f cd bd fc ff b6 bd
       -0.1732621 -0.22323194 -0.100310564 -0.08935544
000080 b9 5b 4e be fc 30 70 be a6 e2 14 bc 0e 96 1f be
       -0.20152177 -0.23456186 -0.00908724 -0.15584585
000090 f0 86 2f 3c be e6 44 bd 28 0b 60 be ed ba b1 3d
       0.010713324 -0.048071615 -0.21879256 0.086782314
0000a0 51 c2 f3 3d 4f dd 32 bd 6d 4e 9d 3d 72 f9 6e be
       0.11902297 -0.043668088 0.07680974 -0.23337343
0000b0 ae 02 5b be 7c 46 3f 3e 34 2b 37 be 3e 56 75 3e
       -0.21387741 0.18679231 -0.17887574 0.2395868
0000c0 15 1d 22 3e 85 c8 e9 3d f1 62 0b 3e 5d fd 42 be
       0.15831406 0.11415199 0.13611962 -0.19041963
0000d0 85 1d 21 3e 9a 2c 82 be 6f bd 5f 3e 3d ff db bc
       0.15733917 -0.25424653 0.21849607 -0.026855106
0000e0 f4 45 ae 3c ee 75 02 3d 16 53 68 be a9 75 b3 bd
       0.02127359 0.031850748 -0.22687945 -0.08762676
0000f0 6a 03 ef bb 87 19 9d bd f6 30 33 3c bf 95 a7 3d
       -0.007294108 -0.076708846 0.010936966 0.08182859
000100 c1 91 e8 3d 78 fc 2c 3e 94 cf 01 be e1 5f 35 be
       0.11355925 0.16893184 -0.12676841 -0.17712356
000110 47 fc 26 be 35 73 9a 3d 9d fa 75 3c 9d b8 6d be
       -0.16307174 0.07541505 0.015013364 -0.23214956
000120 81 22 b8 3d c7 21 aa 3d 60 2c 07 be 81 bb 25 3e
       0.08990956 0.08307224 -0.13200521 0.16184808
000130 27 70 04 3e 76 85 7b be 8d f9 f2 3c fa 9e 2d 3e
       0.12933408 -0.2456263 0.02966001 0.16955176
000140 89 ba 7a be 3d e3 85 3d 31 d8 42 3b e3 ff 6f bc
       -0.2448522 0.06537483 0.002973091 -0.0146484105
000150 e0 b8 a5 3d 0d 03 bc 3c 16 ad 7a 3e d6 9e 82 3e
       0.08091903 0.022950673 0.2448009 0.25511807
000160 76 59 1d be 63 4d 71 be 4d 3e dd bd f4 1b b3 3d
       -0.15366158 -0.23564677 -0.108028986 0.08745566
000170 7d 15 e6 bd 40 2e 27 be a7 cd 00 be 32 ec 59 3e
       -0.11234567 -0.16326237 -0.1257845 0.21281508
000180 47 da 10 be cf 28 54 be 4a 6e 0c bd b7 c3 be bd
       -0.14145766 -0.20718692 -0.034284867 -0.093146734
000190 e8 27 ea 3c 04 a5 85 be e8 bb d8 3d 58 f9 b5 bd
       0.028583482 -0.2610246 0.10582715 -0.08885449
0001a0 d6 10 fc bc 90 55 0b 3e 36 91 4f 3e f3 27 dc bd
       -0.030769747 0.13606858 0.20270237 -0.10749807
0001b0 a4 ba 01 be b4 76 a3 bd 1f 49 05 39 dc 67 b9 3d
       -0.12668854 -0.07981625 0.00012711108 0.09053013
0001c0 62 a8 29 3e d3 76 0e be 49 3e 6e be 40 d1 06 be
       0.16568139 -0.13912515 -0.23265947 -0.1316576
0001d0 e3 0e cd 3c 23 68 11 3e ff e9 54 3d 31 2e 96 bd
       0.025031513 0.14199881 0.05198097 -0.07333029
0001e0 8f 29 bb 3c f6 00 08 bd 41 fa 8b bd e1 57 4d bd
       0.022846965 -0.03320404 -0.068348415 -0.050132636
0001f0 58 35 43 3e 74 1d 99 bc 79 51 14 be 37 1e 57 3e
       0.19063318 -0.018690802 -0.14484204 0.2100762
000200 75 b4 5d be d7 d5 d9 3d 20 ef 7a 3b e1 0c 15 be
       -0.2165087 0.1063649 0.0038289502 -0.14555694
000210 e4 d9 32 3e ea 13 43 3d a8 a2 30 3e e9 6c 0d bd
       0.17465931 0.047626413 0.17249548 -0.034527693
000220 5f 50 70 be c4 a7 89 bd 5c 85 dc 3d 20 30 25 bb
       -0.23468159 -0.06721452 0.10767624 -0.0025205687
000230 b3 90 90 bd e8 2d 70 be f1 f6 77 be 1e a7 0f 3d
       -0.07058849 -0.23455012 -0.24215294 0.035071485
000240 0d a9 34 bd 17 b0 ed 3d 93 4f 25 be ce ac 84 bd
       -0.044106532 0.11605852 -0.16143636 -0.064782724
000250 6a 2b 28 be 32 62 e3 bd 27 cc 0d 3c 9a 77 0c 3e
       -0.16422811 -0.11102714 0.008654631 0.137175
000260 1b cd 3c be 06 e6 cf bd b1 ea 87 bc 20 67 9c 3d
       -0.18437617 -0.10151295 -0.016591402 0.07636857
000270 d0 ea 36 be 19 56 09 3e 58 26 c5 bd 53 73 9a 3d
       -0.17863011 0.1341175 -0.09626454 0.075415276
000280 16 3e 0a be 80 d7 62 3d af 09 84 3d 86 f5 7a 3e
       -0.13500246 0.055381298 0.064471595 0.24507722
000290 8a 68 bd 3d 83 66 69 3e 02 cd bb 3d f7 d4 99 3d
       0.09248455 0.22793011 0.091699615 0.07511323
0002a0 e5 ee 94 bd 59 01 53 3e 0a 88 95 3d b5 c4 30 3d
       -0.07272128 0.20605983 0.07301338 0.043156344
0002b0 de 3f 41 3c c7 fd 4a be 54 e8 1b 3e 1a 86 7d be
       0.011795012 -0.19823371 0.15225345 -0.24758187
0002c0 08 15 b2 bb 5b e0 6c be 88 10 13 be 93 ca 2f 3e
       -0.005434636 -0.2313246 -0.14361775 0.1716712
0002d0 1c c0 c1 bc ef a3 80 be 15 bc 81 3d 1e b8 ad bd
       -0.023651175 -0.2512507 0.06334702 -0.08482383
0002e0 90 dc 5b 3d 75 50 ad 3d df 6d 0c 3e df 75 dc 3d
       0.05367714 0.084626116 0.13713787 0.107646696
0002f0 b5 fd 37 be b2 9c 7c bd 3c 71 4b be 46 93 20 be
       -0.17967875 -0.061672874 -0.19867414 -0.1568118
000300 6e 9d 35 be 5a c3 e5 3d b7 4c 13 3e 83 99 85 3e
       -0.17735836 0.11218901 0.14384733 0.26093683
000310 a3 49 35 3d 14 19 80 3d b7 fa 75 be ae 1b 31 be
       0.04425968 0.06254783 -0.24021421 -0.17295715
000320 ae 7b d9 bc db 2b 41 3e 8c d8 84 3e c9 1a 45 be
       -0.026548233 0.18864386 0.25946462 -0.19248499
000330 d5 a7 dc bd 6a 44 35 3e fd 4e a4 3c 20 8b 75 3e
       -0.10774199 0.17701879 0.020057196 0.23978853
000340 87 74 6b 3e 48 ff 9c bd 55 8d 2b be bf 8a 2b be
       0.2299367 -0.076658785 -0.16753133 -0.16752146
000350 c8 30 bd bd df ed db bd 32 eb 06 3d 8f 6d c9 ba
       -0.0923782 -0.1073873 0.032939143 -0.0015367734
000360 65 1b 6f 3d fe e6 3e 3e e0 cb fe bc 6a c2 84 be
       0.058375735 0.18642804 -0.031103075 -0.25929576
000370 1a 06 2f 3e 2d 00 61 be 13 77 10 3e b4 b1 e7 3d
       0.17092171 -0.21972723 0.14107923 0.11313191
000380 db b1 5a 3e 70 25 5f be 74 ed 6a 3e a5 88 0c 3e
       0.21356909 -0.21791625 0.22942144 0.13724001
000390 46 d5 14 be 10 0a 10 3e a2 b6 72 be f0 69 61 3e
       -0.14534482 0.14066339 -0.23702481 0.22013068
0003a0 60 74 83 3d 69 f3 cd 3d 50 7b b2 bd 0e 68 0c be
       0.06418681 0.100561924 -0.08714926 -0.13711569
0003b0 cd d2 45 be e3 4d 31 bc 5a d0 17 3e 18 ef 45 3e
       -0.19318695 -0.010821792 0.14825574 0.19329488
0003c0 f7 af 4a be e2 7b 65 3e 07 53 d4 bd 90 ef 1f 3e
       -0.19793688 0.22410539 -0.10367399 0.1561873
0003d0 e3 96 3b 3e dc e3 55 be 16 8b 46 bb be cd 4d be
       0.18319277 -0.20887703 -0.0030295304 -0.20098016
0003e0 ee e5 84 be f6 b7 6b 3e 9e a2 a8 bd 7a f2 0b 3d
       -0.25956672 0.23019394 -0.08234142 0.03416679
0003f0 f0 f8 5f be 70 1c 00 be dc 2f 6a be 62 56 80 bc
       -0.21872306 -0.12510848 -0.2286982 -0.01566619

2.weight f4 [32, 128]
000000 5f 81 60 3d 23 06 0e 3d 7f 69 76 3d 1b f2 7c bc
       0.054810878 0.03467382 0.060159203 -0.015438582
000010 e2 4e 98 3d ad 8d 9c 3d 29 c6 ba bd 44 ee 81 bd
       0.07436921 0.0764421 -0.09119827 -0.06344274
000020 03 20 1e 3d 3a de 92 bd 23 91 99 3d 9f b6 92 bd
       0.038604748 -0.071712926 0.07498386 -0.071637385
000030 f9 0b 53 bd f0 76 6e 3c 47 ea 08 3d d6 60 09 bd
       -0.05152509 0.014554724 0.03342655 -0.033539616
000040 47 c3 f1 bc ae 13 05 3c 4d df 72 bc 8d 9c 74 bd
       -0.02951206 0.008122368 -0.014823747 -0.05971961
000050 07 68 28 3d 69 15 0b bc dc 5f c6 bc ba 9e 96 bd
       0.041114833 -0.008488991 -0.024215631 -0.073544934
000060 ec 3f 8a 3d 54 b9 69 bd 3b d0 b3 3b 28 04 a9 3d
       0.067504734 -0.05706151 0.0054874695 0.08252746
000070 71 c9 a1 bd 23 27 54 bd d7 a7 c1 bc 67 c6 ed 3b
       -0.0789975 -0.051795136 -0.023639603 0.0072563174
000080 51 b3 89 bb 5d 20 9c 3c fa 9f 53 3c 6a df c6 3c
       -0.0042022844 0.0190584 0.012916559 0.024276454
000090 d0 df 10 3c 90 74 1e bd da a9 a8 bc f6 33 1e ba
       0.008842424 -0.03868538 -0.020588804 -0.00060349645
0000a0 4b ac 36 3d 62 76 e7 3c 08 a0 b3 bd 70 11 2d bd
       0.044597905 0.028254692 -0.08770758 -0.042252958
0000b0 96 c3 4d 3c 9f 0f 04 3d 67 d8 2c 3d 6b 39 59 3d
       0.012558838 0.03224146 0.042198565 0.053033274
0000c0 c5 d2 8b ba ce 51 47 3d 34 ad 82 3d 50 c3 a9 bd
       -0.0010667673 0.048662 0.06380692 -0.08289206
0000d0 ed 36 0f bd 21 9a 85 3a f9 70 9f bd 28 9c d6 bc
       -0.03496449 0.0010193029 -0.0778522 -0.026197508
0000e0 88 05 4d bc ba be 9e 3d 65 86 16 bd f8 40 58 bd
       -0.012513526 0.07751222 -0.036749262 -0.052796334
0000f0 1f bd af bc b4 4b 39 bc cd 21 83 bd 19 39 de bc
       -0.021452485 -0.011309553 -0.06402931 -0.027126836
000100 71 e7 12 bd 42 1e b1 bc 40 5c 93 bd 66 b3 04 bd
       -0.03586525 -0.021620873 -0.0719533 -0.03239765
000110 0e dc aa bd fb 30 db 3c d1 4b f5 bb 63 e9 50 3d
       -0.08342753 0.026756754 -0.0074858447 0.051003825
000120 41 c7 85 3d 2a c6 4c 3d 51 fa a0 3d 70 cd 3d 3a
       0.06532145 0.04999367 0.07860244 0.00072403904
000130 69 57 06 3d 30 7d 9c 3c 44 13 5d 3c be 24 f1 bc
       0.032798205 0.019102663 0.013493363 -0.029436465
000140 f2 ef 95 bd be b2 09 3d 19 d5 85 3d 75 ea 83 3d
       -0.073211566 0.033617727 0.06534786 0.064412035
000150 96 ae 3d bd 58 ef a3 3d ce 4f e4 bb 80 63 88 bd
       -0.046309076 0.080046356 -0.0069675213 -0.06659603
000160 0b 5a 99 3c b0 ef b3 3d c7 2e d3 bd 82 d6 5c bd
       0.018719694 0.08785951 -0.103116564 -0.053915508
000170 fd 97 95 bd d1 05 3d 3d 22 2e ed bc 4b 55 fc bc
       -0.0730438 0.046148125 -0.028952662 -0.03080239
000180 8c fa 6a 3d 7c 0b 8d 3b 8f e5 c3 3d 09 ed af bd
       0.057367846 0.0043043476 0.09565269 -0.08590133
000190 ab 1f b5 bc 5d 73 1f 3d 74 d5 33 bd 31 d1 6e 3d
       -0.022109827 0.03892838 -0.043904737 0.05830497
0001a0 d2 18 20 bd 3f bd 36 bc 1e 67 4a bd ef 10 c2 3d
       -0.03908617 -0.011153518 -0.049414746 0.09475886
0001b0 36 44 8c bd 9b 19 9e bd c1 3a 98 3d fe 36 85 3c
       -0.06848948 -0.077197276 0.074330814 0.016261574
0001c0 89 30 42 bc b4 8a 0f bd a8 34 64 3d c0 64 b6 3d
       -0.011852392 -0.035044387 0.05571428 0.08905935
0001d0 b4 42 d6 bc 11 fd 00 bd a1 05 94 3d 5d ac 22 3d
       -0.026154853 -0.031491343 0.07227636 0.03971516
0001e0 49 68 10 bd d1 59 f6 bc 4b cd f4 3c 3a 86 9f 3c
       -0.035255704 -0.030072125 0.029883048 0.019473184
0001f0 e1 b1 8e 3d b2 3e 9f 3d 9f bb 46 3d 75 31 90 bd
       0.069675215 0.0777563 0.048518773 -0.07040683
000200 63 21 b9 bc 97 16 93 3d c8 fa ef bc b9 45 f1 3c
       -0.022598928 0.07182043 -0.029294387 0.029452192
000210 9f 35 9e 3d 3c a6 ac 3c 75 56 88 bd b4 d8 80 bd
       0.07725071 0.02107536 -0.06657115 -0.06291333
000220 94 26 02 bd 6d 7e b9 3c bf f1 a1 3c 3e 53 91 3d
       -0.031775072 0.022643292 0.019768594 0.07095955
000230 f7 00 b2 bd 9d af 83 3d 5c f4 85 3d 83 14 87 3d
       -0.0869159 0.0642998 0.065407485 0.06595709
000240 4c 2d af bc 20 80 1c 3d 62 e0 22 bd e0 e6 bd bc
       -0.021383904 0.038208127 -0.03976477 -0.023181379
000250 29 04 61 bd 20 29 8e 3d ef 5f 79 3d 38 ec 59 3d
       -0.054935608 0.06941438 0.060882505 0.05320379
000260 b3 99 22 bb ec ae 38 bd 7d 04 fa 3b 3d 55 a5 bd
       -0.002481085 -0.045088693 0.0076299296 -0.080728985
000270 ee c6 27 bd c5 70 4b 3d 6a b9 b2 3c c9 bc 95 bd
       -0.0409612 0.049668092 0.021816928 -0.073113985
000280 fe b3 ca 3c 84 33 11 bd f5 c1 2c bc 5a db a6 ba
       0.02474403 -0.03544952 -0.01054429 -0.0012730167
000290 36 8b de 3b 4d 2a a5 3c bb 03 d5 bd e1 ec 5a bc
       0.0067914976 0.020161772 -0.10401102 -0.01336214
0002a0 cb 68 4c 3d 05 87 9b bd 8c 4e 51 bc f8 7c 81 b6
       0.049904626 -0.07594112 -0.012775075 -3.859048e-06
0002b0 73 73 81 3d 01 0d db 3b c8 41 a5 bc f9 c1 87 3c
       0.06320848 0.0066849 -0.020172969 0.016571986
0002c0 6f 26 c6 3c 24 8e 06 bd e8 03 39 3d 2b b6 8e bd
       0.024188248 -0.0328504 0.04516974 -0.069683395
0002d0 02 d5 46 b9 63 5b f9 3c 01 fd 2c bd 08 f5 67 3d
       -0.00018962103 0.030439084 -0.04223347 0.056630164
0002e0 0f 3f 62 3d d8 05 75 bd a3 23 f2 3c d8 e7 37 3d
       0.05523592 -0.059820026 0.029558009 0.044898838
0002f0 20 53 69 bd 4b 54 75 bd e1 79 ba 3d 87 66 82 bd
       -0.05696404 -0.05989484 0.09105278 -0.06367212
000300 f2 48 59 bd 5e fa 9a bd 11 93 89 bd 23 7a 9c bd
       -0.05304808 -0.07567285 -0.06717504 -0.07640483
000310 86 e6 58 3d a4 b6 8c bc c4 de 8b 3d c0 07 55 3d
       0.05295422 -0.017176934 0.068295985 0.052009344
000320 3d 33 12 bd 45 8b 3b bd ce 92 d3 bc 5d e4 b4 3c
       -0.035693396 -0.045787115 -0.025826838 0.022081548
000330 f9 3c c0 3c 5c 89 af 3c 62 10 8b 3d ef bd 12 bd
       0.023466574 0.021427803 0.06790234 -0.035825666
000340 d8 24 c4 bc 8b b4 ce 3c aa 03 0a bc 70 a1 97 bd
       -0.02394335 0.025232574 -0.008423725 -0.07403839
000350 16 2d 6d 3d ad 13 45 3d 5c 13 82 3d 22 1e 16 3d
       0.057904325 0.048114467 0.06351349 0.03664983
000360 38 48 ad bd 62 bf 4b bc ef 83 6a bd dd a4 76 3d
       -0.0846104 -0.012435766 -0.057254728 0.06021582
000370 c7 b1 93 bd aa 0b ce bc 94 f8 8e 3d a4 65 82 3d
       -0.07211643 -0.025152046 0.06981006 0.06367043
000380 1b fc 33 3d 50 8a 83 bd 42 91 8f bd a2 68 91 bd
       0.0439416 -0.064228654 -0.070101276 -0.07100035
000390 53 6b 8c bd 04 73 99 3d 85 72 7a 3d 2a a5 3f bc
       -0.06856408 0.074926406 0.06114437 -0.011697093
0003a0 43 73 1e 3c 6e ff b4 bd 81 4d 8d 3d fd bb e0 3c
       0.009671035 -0.08837782 0.06899548 0.02743339
0003b0 f8 b1 8a 3d c8 ad ca 3d a4 ec 55 3d 5b 5f 3b bc
       0.06772226 0.098964274 0.05222763 -0.011436309
0003c0 1d 0a 9f bd 2a 05 a1 bd 9a 5f 90 bd 14 45 39 3d
       -0.07765601 -0.07862313 -0.070494846 0.045231894
0003d0 04 f1 96 3d 07 ae 59 3d 6c c3 80 3c 0b e6 58 3b
       0.07370189 0.05314448 0.015718184 0.00330961
0003e0 3c 1b 7c 3d ad b7 cd bd a7 5c 8a 3d ef c6 9d 3b
       0.06154941 -0.10044799 0.06755953 0.0048149745
0003f0 9d 25 67 bc c7 eb 89 3d 43 63 85 ba 21 ac a5 3d
       -0.014108089 0.06734424 -0.0010176677 0.080894716

4.weight f4 [1, 32]
000000 d3 9e 25 be b7 65 18 3e 37 29 2c be aa b5 5c be
       -0.16173868 0.14882551 -0.16812597 -0.21553674
000010 6c 42 86 3d a1 fc 93 3d b1 8f 9e bc 50 4a fd bc
       0.06555638 0.072259195 -0.019355627 -0.030919224
000020 a8 6d cb be 11 78 b8 3c 17 67 38 be b1 07 ef 3b
       -0.397321 0.02251819 -0.18008076 0.007294618
000030 36 a7 6b be c1 ae 5b 3d e7 8c f1 bd ac b7 8c be
       -0.23013005 0.053633455 -0.11794453 -0.2748388
000040 36 aa 12 3e 96 58 eb 3d 87 8b 6f be bc 04 97 bd
       0.14322743 0.11491506 -0.23393069 -0.0737395
000050 df a0 bd be 4b 76 d4 bd c3 59 39 3d e2 ee a4 be
       -0.37036797 -0.10374125 0.04525162 -0.32213503
000060 09 95 72 3d 5a f4 7f bd d6 f8 13 bc ac ea 77 be
       0.059224162 -0.06248889 -0.009031495 -0.24210614
000070 c2 4f e7 bc 19 c8 2e be 88 06 2e 3d d9 95 b8 3d
       -0.028236274 -0.17068519 0.042486697 0.09012956
