Data/Neural Network/two_player_A.pt (torch, 9799 bytes, 3 tensors)

0.weight f4 [32, 32]
0	0x3d1db9c9	0.038507257
1	0x3e26a686	0.16274461
2	0xbe091498	-0.13386762
3	0xbe29a2ea	-0.16566053
4	0xbe2c0e77	-0.16802393
5	0x3d7b1a6d	0.0613045
6	0xbcd1c876	-0.025608283
7	0x3d32279b	0.043494802
8	0xbdfb18ec	-0.12260613
9	0xbd778638	-0.060430735
10	0xbd23c02f	-0.039978202
11	0xbd5f3e34	-0.05450268
12	0xbdf9ac44	-0.1219106
13	0xbd7ab8f0	-0.061211526
14	0xbe264930	-0.16238856
15	0xbe61af58	-0.22039545
16	0x3e01ea31	0.12686993
17	0x3e2b1abc	0.16709417
18	0x3e096050	0.13415647
19	0xbc2ab085	-0.010418062
20	0x3e35367d	0.17696567
21	0x3e11cab4	0.14237481
22	0x3daa1944	0.083056
23	0xbdb4431d	-0.08801863
24	0xbccf129d	-0.02527743
25	0xba5adf53	-0.0008349318
26	0x3d2ba57a	0.041905858
27	0xbe359837	-0.17733847
28	0x3dfb6068	0.122742474
29	0x3da285b2	0.079356566
30	0xbdb764f8	-0.08954805
31	0xbdd47500	-0.103738785
32	0x3dfc9aee	0.12334238
33	0x3df794d4	0.120889336
34	0xbdd88250	-0.1057173
35	0x3d0a5d6a	0.033780493
36	0xbdf71295	-0.12064091
37	0xbdeee3d8	-0.116645515
38	0xbe1c97ad	-0.15292235
39	0xbde389da	-0.111102775
40	0xbdac5d69	-0.08416254
41	0xbe2579bd	-0.1615972
42	0xbce1195d	-0.027477914
43	0xbc2f6bba	-0.010706836
44	0x3de2e9a9	0.110797234
45	0xbe4d7ede	-0.20067927
46	0x3e2d6c6a	0.16935888
47	0x3e22716f	0.15863584
48	0xbe1119c5	-0.14169987
49	0xbdaed7ae	-0.085372314
50	0xbe075bb7	-0.1321858
51	0xbe1a3276	-0.15058312
52	0x3d7dcb96	0.061961733
53	0x3ca4502e	0.020057764
54	0x3cacbe58	0.021086857
55	0x3da1e3b1	0.07904757
56	0xbe2e9ebc	-0.1705274
57	0x3e318040	0.1733408
58	0x3c008c87	0.007846004
59	0xbdb4d2e1	-0.088292845
60	0x3e19fb70	0.15037322
61	0xbe75b4db	-0.23994772
62	0xbb7407c1	-0.0037236067
63	0xbe943e27	-0.28953668
64	0x3de9278b	0.11384495
65	0x3d8d6e3b	0.069057904
66	0x3e152561	0.1456504
67	0x3dc77b2e	0.097402915
68	0xbde71df5	-0.11285011
69	0xbd911a67	-0.07085114
70	0x3e259408	0.1616975
71	0x3dbdbfa6	0.0926507
72	0xbdf6918e	-0.12039481
73	0xbddc5aa4	-0.10759476
74	0x3dcc3ca5	0.099725045
75	0xbdfb4401	-0.1226883
76	0xbe10a811	-0.14126612
77	0x3deb96ec	0.115033954
78	0xbe25c5fb	-0.16188805
79	0x3eec068c	0.46098745
80	0xbcd8fd1e	-0.026487883
81	0x3cf20278	0.029542193
82	0xbe2418c7	-0.16025077
83	0xbe0fa7c4	-0.14028841
84	0xbdfb9721	-0.12284685
85	0xbd9d4e5a	-0.0768096
86	0x3da756c4	0.08170846
87	0xbcb973bf	-0.0226382
88	0xbd85f4de	-0.06540845
89	0x3dc017ac	0.09379515
90	0x3ddd800b	0.10815438
91	0xbc08ca06	-0.008348947
92	0x3e2df7d3	0.16989069
93	0x3e92f755	0.28704324
94	0xbd315e7c	-0.043302998
95	0x3e082352	0.13294724
96	0xbc7a8af5	-0.015291919
97	0xbcfbd337	-0.030740364
98	0x3e1ffa9c	0.15622944
99	0xbd42dab0	-0.047571838
100	0xbda3584c	-0.07975826
101	0x3d9cdf7f	0.07659816
102	0x3e2d280b	0.16909806
103	0xbc8ea146	-0.017410886
104	0x3e0078a1	0.12546016
105	0xbc3c6c5b	-0.011500443
106	0x3d8aa10a	0.06768997
107	0xbe09d10d	-0.13458653
108	0x3d423e5c	0.04742275
109	0xbd8c61ef	-0.06854617
110	0x3d3f9a06	0.046777748
111	0x3dbd5292	0.09244265
112	0x3d570b02	0.052500732
113	0x3d0e6161	0.034760837
114	0x3e197afa	0.14988318
115	0x3e28b088	0.16473591
116	0x3d9525b6	0.072825834
117	0x3e2d22e9	0.16907848
118	0x3e04f2ae	0.129832
119	0xbb5c7cee	-0.00336438
120	0xbe2ac537	-0.16676794
121	0xbd0a47d5	-0.03375991
122	0xbddf330e	-0.1089841
123	0x3e2a2531	0.1661575
124	0x3d29e5fa	0.04147909
125	0x3e171072	0.14752367
126	0xbca0e8d8	-0.019642279
127	0xbc710f94	-0.014713187
128	0xbcaeafe2	-0.021324102
129	0xbd825ca2	-0.063653246
130	0xbe1996a5	-0.14998873
131	0x3e223294	0.15839607
132	0x3dc94e16	0.09829347
133	0xbb1f825c	-0.0024339175
134	0xbb0d522b	-0.0021563869
135	0x3d27f5fa	0.041006066
136	0xbdd4d554	-0.103922516
137	0x3ccbff31	0.024901958
138	0x3d7514b3	0.059834193
139	0xbe1ff84e	-0.15622064
140	0xbd827585	-0.06370071
141	0x3e1f8c96	0.15580973
142	0xbd37dd37	-0.0448887
143	0xbeaeb8c5	-0.34125343
144	0xbde9a422	-0.11408259
145	0x3c264151	0.010147409
146	0x3c4cb555	0.012494405
147	0xbde12452	-0.10993256
148	0xbe0c4606	-0.13698587
149	0x3d8ddfd3	0.06927457
150	0xbe10099c	-0.14066166
151	0x3cc2705d	0.02373522
152	0x3d730ec9	0.059340272
153	0xbd3735a0	-0.044728875
154	0x3d9f0535	0.07764665
155	0xbda0969e	-0.07841228
156	0xbdf1f0e8	-0.11813527
157	0x3e4c2bfe	0.19938657
158	0xbdbd1245	-0.09232
159	0xbda5d1f5	-0.08096687
160	0x3cd9964f	0.02656093
161	0xbe2ba0a8	-0.16760504
162	0xbc56541a	-0.013081575
163	0xbdbba00e	-0.091613874
164	0x3dbe125e	0.09280847
165	0xbe196ebc	-0.14983648
166	0xbd8ceb62	-0.06880833
167	0x3dafb64e	0.08579694
168	0xbd4a094e	-0.04932528
169	0xbe11c753	-0.14236192
170	0x3d6b1037	0.05738851
171	0x3df1f6d8	0.1181466
172	0x3dddfbe0	0.10839057
173	0xbd349f2f	-0.04409712
174	0xbe2db226	-0.1696249
175	0xbec8d98b	-0.39228472
176	0xbda77bec	-0.08177933
177	0xbd9a03af	-0.07520234
178	0xbe2f9945	-0.17148311
179	0x3e038076	0.12841973
180	0xbdbeef07	-0.093229346
181	0xbe30f800	-0.17282104
182	0xbcf73bc8	-0.030179873
183	0x3d8aa312	0.067693844
184	0xbdc7a873	-0.09748926
185	0xbd9da105	-0.07696728
186	0x3d8206d5	0.06348959
187	0x3e2e3787	0.1701337
188	0x3cc41ff7	0.023941023
189	0xbe96f5b8	-0.29484344
190	0x3d7fb22d	0.06242578
191	0xbe40b155	-0.18817647
192	0x3c8b48cd	0.017002488
193	0xbdd67ce0	-0.10473037
194	0x3ce3c473	0.027803635
195	0xbd8f0c10	-0.069847226
196	0xbd56aed4	-0.052412823
197	0x3e23778b	0.15963571
198	0xbe2e6b73	-0.17033176
199	0xbc505155	-0.012714704
200	0x3e2fafc3	0.17156892
201	0x3cfd6948	0.030933991
202	0x3e15953e	0.14607713
203	0x3cd81795	0.026378432
204	0xbdb8b947	-0.09019714
205	0xbcceb967	-0.025234891
206	0x3e1e483c	0.15457243
207	0xbdd68296	-0.10474126
208	0xbe177a22	-0.14792684
209	0x3e1875e6	0.14888725
210	0x3ddd190a	0.107957914
211	0xbe000111	-0.12500407
212	0xbe21697b	-0.15762894
213	0x3dc91e98	0.098202884
214	0xbd4b002f	-0.049560722
215	0xbcb4c15c	-0.022064857
216	0x3e07a647	0.13247024
217	0x3e119a5b	0.14219038
218	0x3dc25551	0.09488929
219	0xbe127cd5	-0.14305432
220	0x3dd639c7	0.10460239
221	0xbd27fbc9	-0.041011605
222	0xbe369023	-0.17828421
223	0x3d0aba06	0.033868812
224	0x3e01c337	0.12672125
225	0x3d608e22	0.05482305
226	0xbd2c7687	-0.042105224
227	0x3d69bf13	0.05706699
228	0xbda09552	-0.078409806
229	0xbdc334fa	-0.09531589
230	0xbe16ba11	-0.14719416
231	0xbdd5a486	-0.10431771
232	0x3ddd0387	0.107916884
233	0xbd95bc39	-0.07311291
234	0x3d979995	0.0740234
235	0xbbd52e6e	-0.006505779
236	0x3d0b6e8a	0.034040965
237	0x3e334a70	0.17508864
238	0xbe08e6e9	-0.13369335
239	0x3e438098	0.19092023
240	0x3ca34495	0.019930163
241	0x3e0409df	0.1289439
242	0x3d9dc825	0.0770419
243	0xbda64660	-0.08118892
244	0xbd8a4fc0	-0.06753492
245	0x3e1a74b0	0.15083575
246	0xbd7bb112	-0.061448164
247	0x3cbcf8a9	0.02306779
248	0xbd7d9a6b	-0.061914843
249	0x3c9a9ad9	0.018872665
250	0x3dec5554	0.115397125
251	0xbd51dfd6	-0.051238857
252	0xbd41a88a	-0.047279872
253	0xbd54d1a3	-0.051957738
254	0x3e090f08	0.1338464
255	0xbf58a6be	-0.8462943

2.weight f4 [32, 32]
0	0x3dc220e0	0.09478927
1	0xbe89cf73	-0.26916084
2	0xbdceb1db	-0.10092517
3	0xbcc98556	-0.024599712
4	0xbd8b1b47	-0.06792312
5	0xbd6dd265	-0.058061976
6	0xbde325ee	-0.11091219
7	0x3bf4e153	0.00747315
8	0xbd7e501f	-0.06208813
9	0x3e3a9eef	0.18224691
10	0x3e1b5fd6	0.15173277
11	0x3e0ccd4b	0.13750188
12	0xbe37903f	-0.1792612
13	0xbc5b38e8	-0.013380267
14	0x3e18e91e	0.14932677
15	0xbc81229d	-0.015763575
16	0x3d795d0c	0.060879752
17	0x3ca619ae	0.020275917
18	0xbe6c1e4f	-0.23058437
19	0x3dafbb8c	0.085806936
20	0x3d934b02	0.07192041
21	0xbe1183c6	-0.14210424
22	0x3e06b545	0.13155086
23	0x3dc272f2	0.0949458
24	0x3bc4d184	0.0060064215
25	0x3e006f78	0.12542522
26	0xbe5f44fb	-0.21803658
27	0x3e0618f8	0.13095462
28	0xbc6a1611	-0.014287488
29	0xbe0fe2a7	-0.14051305
30	0x3d821983	0.06352522
31	0xbcf8ec42	-0.030386094
32	0xbd75859c	-0.059941873
33	0x3e69db3d	0.22837539
34	0xbe504022	-0.20336965
35	0x3e0c7caf	0.13719438
36	0xbe8d2461	-0.27566817
37	0x3e1e7dae	0.1547763
38	0xbe1275ac	-0.14302701
39	0xbedd3276	-0.4320256
40	0xbdb10209	-0.08642966
41	0xbeddb797	-0.4330413
42	0xbeb3944f	-0.35074088
43	0x3d302bcf	0.04301053
44	0x3e694c04	0.22782904
45	0xbe91573d	-0.2838687
46	0xbdf38040	-0.11889696
47	0x3c0ab277	0.008465401
48	0xbe9cb694	-0.30608046
49	0xbd8ba295	-0.068181194
50	0x3e3714d0	0.17879033
51	0xbdc89ee1	-0.09795929
52	0xbe1bbc6e	-0.15208599
53	0xbe04269b	-0.12905352
54	0x3d1df983	0.03856803
55	0x3d79f799	0.061027143
56	0x3e06777d	0.13131519
57	0xbe87f4e4	-0.26554024
58	0x3e13b0de	0.14422938
59	0xbb4631a9	-0.0030242002
60	0x3d8b41d4	0.06799665
61	0xba983cf0	-0.001161484
62	0xbd2eb69c	-0.04265462
63	0x3e02eb82	0.12785152
64	0xbdbfd097	-0.09365957
65	0xbdae0fe4	-0.08499125
66	0x3cf11bd6	0.029432219
67	0xbd4ccaeb	-0.049998205
68	0xbd0c0229	-0.034181748
69	0xbe00a978	-0.12564647
70	0x3e3caa78	0.18424404
71	0xbd77a72a	-0.060462154
72	0x3e087e30	0.13329387
73	0x3db7c65e	0.089733824
74	0x3d2bf475	0.04198118
75	0x3d8b9161	0.06814838
76	0xbcad6031	-0.021164032
77	0xbe10b3e1	-0.14131118
78	0xbde6fc26	-0.11278562
79	0xbddfcdba	-0.10927911
80	0x3e220d34	0.15825349
81	0xbba21b8f	-0.004947133
82	0xbe359cf1	-0.1773565
83	0xbe09f13e	-0.13470933
84	0xbd78cfc2	-0.06074501
85	0xbe068bd8	-0.13139284
86	0xbdeddaed	-0.116140224
87	0x3e17046f	0.14747785
88	0xbe4aca1a	-0.19803658
89	0xbdaf7d6a	-0.08568843
90	0xbe490ef6	-0.19634613
91	0xbe209818	-0.15683019
92	0xbe1d972a	-0.15389696
93	0x3c61f438	0.013791136
94	0x3d634574	0.055486158
95	0x3b998e01	0.0046861176
96	0x3e969d03	0.29416665
97	0xbe932050	-0.2873559
98	0xbc632cd2	-0.013865666
99	0xbe10c9e4	-0.14139515
100	0x3e8899bb	0.26679787
101	0x3da38af2	0.07985486
102	0x3e380192	0.17969349
103	0x3e3a5f93	0.18200521
104	0xbddc414f	-0.10754644
105	0x3e380257	0.17969643
106	0x3e83895e	0.2569074
107	0x3e711586	0.23543367
108	0xbea21820	-0.3165903
109	0x3e807306	0.25087756
110	0x3e69b3cf	0.22822498
111	0x3cef52ec	0.029214345
112	0x3dc867f0	0.097854495
113	0x3d6c051b	0.057622056
114	0xbe68ca7d	-0.22733493
115	0x3e706b93	0.23478536
116	0x3c8eaea3	0.017417258
117	0x3d0bf264	0.03416671
118	0x3aef7af5	0.0018270897
119	0x3e05a604	0.13051611
120	0xbe1fe4ef	-0.15614675
121	0x3e069184	0.13141447
122	0xbecdceea	-0.40196925
123	0x3e881c8d	0.26584283
124	0x3ddd31b4	0.10800496
125	0x3d7cfe46	0.06176593
126	0x3e1dbc9e	0.15403983
127	0xbe396b82	-0.18107417
128	0xbd71301e	-0.05888378
129	0xbe6e1443	-0.23249917
130	0xbe5a0d17	-0.21294056
131	0x3d8bff04	0.0683575
132	0x3e2defa1	0.16985942
133	0xbd0830bb	-0.033249598
134	0xbb998dda	-0.0046860995
135	0x3d4aa611	0.04947478
136	0x3dcb0f8f	0.09915077
137	0xbd57a44c	-0.05264692
138	0xbdd32941	-0.10310603
139	0x3d97033d	0.073736645
140	0xbe61ea48	-0.22062027
141	0x3d1131fd	0.035448063
142	0xbd143f1b	-0.036192995
143	0xbe075cc0	-0.13218975
144	0x3e49fbdf	0.19724987
145	0x3d1f076c	0.038825437
146	0xbe6dcc95	-0.23222573
147	0x3e4c37aa	0.19943109
148	0xbd64bc0e	-0.055843405
149	0x3dbe95ce	0.09305917
150	0xbda2b146	-0.079439685
151	0xbe0c74ff	-0.13716505
152	0xbdaa3578	-0.083109796
153	0x3e30cc42	0.17265418
154	0xbe698155	-0.22803243
155	0x3cdf821c	0.02728372
156	0x3e154235	0.14576037
157	0xbdad0105	-0.0844746
158	0x3d5dd6ad	0.05415981
159	0xbdf11acf	-0.117726915
160	0x3d9f11e8	0.07767087
161	0x3d795ab6	0.060877524
162	0xbe532ede	-0.20623347
163	0x3ded3f27	0.11584311
164	0x3d57e333	0.05270691
165	0xbdf966e4	-0.12177828
166	0x3d47bbd9	0.04876313
167	0x3d840bdd	0.06447575
168	0xbe30eedb	-0.17278616
169	0xbda2e705	-0.0795422
170	0xbda57a7b	-0.08080002
171	0xbe2726d2	-0.16323403
172	0xbdefeae7	-0.11714726
173	0x3e017959	0.12643947
174	0x3da6035d	0.0810611
175	0xbe545db0	-0.20738864
176	0xbdaf78ff	-0.08568
177	0x3d8e2b77	0.06941884
178	0xbe63fe44	-0.22264963
179	0xbe3f8b52	-0.1870549
180	0x3dd87709	0.10569579
181	0xbdcefeb7	-0.10107177
182	0xbe49ef68	-0.19720232
183	0xbdd299f9	-0.10283274
184	0xbdd1d038	-0.10244793
185	0xbdc77f09	-0.09741027
186	0xbde10815	-0.1098787
187	0x3dcb5354	0.09928003
188	0x3d6e77a6	0.058219574
189	0x3d9d187b	0.07670685
190	0x3d87d825	0.06633023
191	0xbe1c5384	-0.15266234
192	0xbcecbb92	-0.028898034
193	0x3dcfcd1a	0.10146542
194	0xbe343ce0	-0.17601347
195	0xbddfeb55	-0.10933558
196	0xbe338119	-0.17529716
197	0x3c9538c6	0.018215548
198	0xbd95a7bb	-0.07307383
199	0x3de034cb	0.109475695
200	0x3d916db2	0.07101001
201	0xbca9cf17	-0.020728631
202	0x3db0ec87	0.08638864
203	0x3decd97e	0.11564921
204	0xbe22ca9f	-0.15897606
205	0xbdeff7aa	-0.1171716
206	0x3dc3f425	0.09568051
207	0xbd872f74	-0.06600848
208	0x3dfe9d06	0.124322936
209	0xbd45732b	-0.048205536
210	0xbd2ca438	-0.0421488
211	0xbe2fea49	-0.17179216
212	0xbd3aed86	-0.045636676
213	0x3dffe6bd	0.12495182
214	0x3de17286	0.11008172
215	0xbd33befc	-0.04388331
216	0xbda6fb53	-0.08153405
217	0x3d213cf7	0.03936478
218	0x3c78b33f	0.015179454
219	0xbb762bda	-0.0037562759
220	0xbd07f005	-0.033187885
221	0xbd40bdfc	-0.047056183
222	0x3d48d34e	0.04902964
223	0x3dacf381	0.08444882
224	0x3ccddba3	0.025129145
225	0x3dd0b6f1	0.10191143
226	0xbdd27fb0	-0.10278261
227	0xbd717294	-0.05894716
228	0xbdea4cc9	-0.11440427
229	0xbd0ca822	-0.03434003
230	0xbd84b595	-0.064799465
231	0xbdb6fd76	-0.089350626
232	0xbd8316a1	-0.064008005
233	0xbe094b05	-0.13407524
234	0xbe79d83a	-0.2439889
235	0xbe699f31	-0.22814633
236	0x3e2fabf1	0.17155434
237	0x3bf35acc	0.0074265953
238	0xbe5ba81f	-0.21450852
239	0xbcb5970b	-0.02216675
240	0xbe5b4be2	-0.21415666
241	0x3d3eed98	0.046613306
242	0x3dcd3123	0.10019138
243	0xbe89cd86	-0.26914614
244	0xbcc5f730	-0.02416572
245	0xbd3ab29e	-0.0455805
246	0xbcf305ac	-0.02966579
247	0xbda5107a	-0.08059783
248	0x3dc8e475	0.098092
249	0x3da490a7	0.08035403
250	0x3c0250f1	0.007953868
251	0xbd6ae76e	-0.057349615
252	0xbd323a04	-0.04351236
253	0xbdf98793	-0.12184062
254	0xbdf68ffe	-0.12039183
255	0x3e3273ab	0.17426936

4.weight f4 [1, 32]
0	0x3e6d0f10	0.23150277
1	0xbf50fc9f	-0.8163547
2	0x3c855e12	0.016280208
3	0x3f2de8ad	0.6793316
4	0x3e305fad	0.17223997
5	0xbc88a873	-0.016681885
6	0xbde557b1	-0.111983664
7	0xbf0070fe	-0.5017241
8	0x3e34b5d6	0.1764749
9	0xbebc0a5f	-0.36726663
10	0xbe943b90	-0.28951693
11	0xbe9d1184	-0.30677426
12	0xbe050475	-0.12989981
13	0xbde84db8	-0.11342949
14	0xbdff8e9a	-0.12478371
15	0xbdbd8a49	-0.092548914
16	0x3e2c72c2	0.16840652
17	0x3e261b6c	0.16221398
18	0xbdd35c7d	-0.10320375
19	0xbf33d987	-0.70253795
20	0x3f757719	0.95884854
21	0x3e2e43f5	0.17018111
22	0xbe993021	-0.29919532
23	0x3daf45aa	0.08558209
24	0x3eb4965e	0.3527097
25	0xbf74a4e6	-0.95564115
26	0xbf1257c9	-0.571652
27	0x3ee60eb6	0.449331
28	0xbf0da18f	-0.55324644
29	0x3f1a95b9	0.6038471
30	0xbef9a342	-0.48757368
31	0xbd286244	-0.04110934
