Data/Neural Network/two_player_C.pt (torch, 22415 bytes, 4 tensors)

0.weight f4 [32, 32]
0.07572881 0.01334561 0.15991446 -0.13108453 -0.057454422 -0.17536119 -0.0077530076 -0.071611665
-0.1727963 0.035212636 0.014376906 0.101360284 -0.09564432 -0.19599932 0.058574606 -0.5704523
0.04866495 0.12999289 0.13519143 -0.12314698 0.08251813 0.14146894 -0.17415965 -0.038715377
-0.15058856 -0.060490377 0.16540831 -0.15941384 0.12184533 -0.048798967 0.06718554 -0.07331835
-0.0015095988 -0.12633424 0.022538029 -0.12550215 0.10757324 0.04135131 0.055705443 -0.06358174
0.1807353 0.1463 0.17230013 -0.0669188 0.08070669 -0.054145146 0.0655337 -0.19247876
0.12015392 -0.12748751 -0.035415046 0.20274544 0.02907333 -0.10845947 0.12969798 0.08890823
0.088822186 -0.13508488 -0.06405452 -0.10296443 -0.100977615 -0.12722412 -0.11910833 0.049520027
-0.17208108 0.026941959 -0.16616254 -0.01280947 -0.00025275064 -0.123625815 -0.107832395 -0.06775578
0.056188293 0.18162519 0.070751026 0.023412917 0.01184957 -0.29690638 -0.121084824 -0.6142209
-0.15691313 0.025618251 0.047879383 0.15555775 -0.16388111 -0.08035744 -0.091463566 -0.0713413
-0.14579761 -0.1409141 0.14775172 -0.06795142 0.012104855 -0.08082367 -0.031822395 0.024121616
0.116209224 -0.014914536 -0.035724018 -0.056982324 -0.0043386305 0.009106596 0.17572734 -0.019148143
0.07703114 -0.17178236 -0.11564254 0.07823993 -0.03712412 0.12592034 -0.048658095 0.01952803
-0.08203799 -0.14774986 -0.08766585 -0.023665072 0.1427541 0.16730161 -0.004769138 0.1313752
-0.10652191 -0.068372294 0.00037770584 0.018690566 0.09681365 -0.024796672 0.112222634 0.16027325
-0.13995981 0.10248686 0.10965234 0.03458661 -0.11782719 0.016740136 0.06090527 0.028063959
0.032903068 0.1477627 0.05465771 -0.14188741 -0.08585975 0.027409367 0.1280912 0.1079073
-0.07258991 0.07787582 0.037921216 -0.074540995 -0.08436409 0.00096600305 -0.04551025 -0.16717641
0.02169447 0.0058849286 -0.017140893 -0.08686037 -0.0021867403 -0.22582094 0.15255763 -0.04616382
0.09347812 0.004371698 0.06730034 0.10931721 -0.10152549 0.14647615 0.14820254 0.12353386
0.12000111 -0.120258614 -0.17542736 -0.024104143 -0.09709049 0.08359847 -0.144131 -0.20492129
-0.16465469 -0.03707844 -0.06953361 -0.07691529 -0.1342258 0.14649196 0.018876452 0.048416387
-0.013372878 -0.034642655 0.0010417631 -0.0687785 0.06673074 -0.20013626 0.08391036 -0.03147909
0.03807739 0.10170495 0.032748625 -0.10995068 0.061323013 -0.0023897025 0.16477838 -0.0507725
-0.046760883 0.051349964 0.16074562 0.02575518 0.18401082 0.012490828 -0.041783802 0.32138547
0.15387408 -0.1528157 0.10607919 -0.16959848 0.068005115 0.15649001 -0.10011135 -0.16179405
-0.14311215 -0.002328979 -0.009007916 -0.11491013 0.038154185 0.14029063 0.09897858 0.0087304
-0.15153505 -0.13073435 0.16532461 -0.07712874 -0.15920272 -0.057535548 0.09791671 0.11439421
-0.05608059 0.15992212 -0.0124817295 0.07916771 0.0122329835 0.05438746 0.15373413 0.47032315
0.05983849 -0.08769137 -0.10168806 0.1608257 -0.109947145 -0.119975924 -0.14540875 0.07060852
-0.04703134 -0.11101093 0.10299626 -0.12343092 0.14423144 -0.080389194 -0.02490017 0.1190922
00000000: b517 9b3d 8ca7 5a3c 9ec0 233e 063b 06be
00000010: 5455 6bbd e291 33be f10c febb 23a9 92bd
00000020: 83f1 30be 203b 103d 1d8d 6b3c fb95 cf3d
00000030: 2be1 c3bd 0cb4 48be edeb 6f3d 2909 12bf
00000040: e654 473d db1c 053e 9f6f 0a3e 7c34 fcbd
00000050: 44ff a83d 3cdd 103e e856 32be 0494 1ebd
00000060: e333 1abe c2c4 77bd cc60 293e 623d 23be
00000070: 0b8a f93d 6de1 47bd 9398 893d ee27 96bd
00000080: bbdd c5ba c35d 01be aca1 b83c a383 00be
00000090: 5c4f dc3d fe5f 293d 642b 643d 2537 82bd
000000a0: ad12 393e abcf 153e 726f 303e b90c 89bd
000000b0: 8d49 a53d 4dc7 5dbd 8836 863d 2719 45be
000000c0: 4213 f63d 168c 02be 5e0f 11bd 809c 4f3e
000000d0: 312b ee3c 0020 debd 8ccf 043e 8515 b63d
000000e0: 68e8 b53d b153 0abe 042f 83bd 04df d2bd
000000f0: 5acd cebd 0a47 02be 11ef f3bd 83d5 4a3d
00000100: 0636 30be 62b5 dc3c 8326 2abe d0de 51bc
00000110: 9e83 84b9 882f fdbd 3bd7 dcbd 8bc3 8abd
00000120: b225 663d f4fb 393e eae5 903d 72cc bf3c
00000130: b324 423c 1d04 98be 52fb f7bd 953d 1dbf
00000140: d6ad 20be 5edd d13c 2c1d 443d 884a 1f3e
00000150: 73d0 27be 7192 a4bd 4051 bbbd 631b 92bd
00000160: f84b 15be c94b 10be 3a4c 173e 1d2a 8bbd
00000170: 7153 463c e186 a5bd 3358 02bd b29a c53c
00000180: 1aff ed3d 195c 74bc 5953 12bd 4c66 69bd
00000190: 122b 8ebb d533 153c def1 333e 91dc 9cbc
000001a0: 81c2 9d3d b7e7 2fbe ffd5 ecbd 423c a03d
000001b0: 760f 18bd 43f1 003e b64d 47bd 3ff9 9f3c
000001c0: 8903 a8bd bd4b 17be 278a b3bd 41dd c1bc
000001d0: 212e 123e 1d51 2b3e 6e46 9cbb 3887 063e
000001e0: 2928 dabd c606 8cbd d206 c639 f51c 993c
000001f0: 3c46 c63d 6422 cbbc fbd4 e53d ac1e 243e
00000200: a051 0fbe a1e4 d13d 6891 e03d b0aa 0d3d
00000210: 624f f1bd 9c22 893c ce77 793d 63e6 e53c
00000220: 5ec5 063d 1b4f 173e c3e0 5f3d ef4a 11be
00000230: 3dd7 afbd 9c89 e03c 572a 033e 81fe dc3d
00000240: 05aa 94bd 5c7d 9f3d 4753 1b3d f3a8 98bd
00000250: 14c7 acbd 5e3b 7d3a f568 3abd 4b30 2bbe
00000260: 9ab8 b13c 5cd6 c03b 0f6b 8cbc dae3 b1bd
00000270: 6a4f 0fbb 9b3d 67be 1138 1c3e 4616 3dbd
00000280: 7571 bf3d 7640 8f3b c3d4 893d b4e1 df3d
00000290: 99ec cfbd d8fd 153e 68c2 173e 52ff fc3d
000002a0: 24c3 f53d 264a f6bd 3ba3 33be 0d76 c5bc
000002b0: 61d7 c6bd ad35 ab3d 1497 13be e3d6 51be
000002c0: 3d9b 28be 90df 17bd a367 8ebd c385 9dbd
000002d0: 7d72 09be fd01 163e caa2 9a3c 4350 463d
000002e0: ea19 5bbc 75e5 0dbd c58b 883a bedb 8cbd
000002f0: 20aa 883d 85f0 4cbe 32d9 ab3d 38f0 00bd
00000300: 0af7 1b3d af4a d03d 6c23 063d d22d e1bd
00000310: d72d 7b3d 8e9c 1cbb aabb 283e d3f6 4fbd
00000320: 5788 3fbd 5754 523d 809a 243e 87fc d23c
00000330: 556d 3c3e 54a6 4c3c 7e25 2bbd a38c a43e
00000340: 2b91 1d3e b87b 1cbe 0c40 d93d 39ab 2dbe
00000350: 4446 8b3d eb3e 203e 2e07 cdbd 57ad 25be
00000360: fe8b 12be c9a1 18bb f095 13bc 0156 ebbd
00000370: 9047 1c3d 59a8 0f3e 48b5 ca3d f409 0f3c
00000380: 012c 1bbe 3adf 05be db4a 293e acf5 9dbd
00000390: 0a06 23be 65aa 6bbd 8e88 c83d 8347 ea3d
000003a0: c3b4 65bd a0c2 233e 2b80 4cbc ae22 a23d
000003b0: da6c 483c 63c5 5e3d 7b6c 1d3e 32ce f03e
000003c0: 3419 753d 8897 b3bd d441 d0bd 7eaf 243e
000003d0: f82b e1bd f0b5 f5bd 08e6 14be 339b 903d
000003e0: efa3 40bd b359 e3bd b4ef d23d 5ac9 fcbd
000003f0: 68b1 133e 17a3 a4bd 71fb cbbc 9de6 f33d

2.weight f4 [64, 32]
-0.0108751375 -0.15756051 0.18084617 -0.024145622 -0.07837779 -0.00859254 -0.00040425907 -0.22265816
0.10007519 -0.124657564 0.05315901 0.20985222 -0.11414845 -0.07798827 0.09097101 0.13569982
0.1688742 -0.26180628 0.22093287 -0.050704457 0.023912534 0.044275813 -0.07872571 0.08210854
0.05210142 0.12486834 -0.034018755 0.22706102 0.020136744 0.22872123 -0.20292753 -0.26636732
0.06227847 0.036274962 -0.11212175 -0.15273501 -0.087482564 -0.07235876 -0.2135282 0.11062679
-0.17771223 -0.12226853 -0.20200685 -0.07057794 -0.032114696 0.02519362 -0.1445318 -0.045411263
-0.06389873 -0.10723329 -0.03819471 -0.09323899 -0.12889242 -0.12837967 -0.12997611 -0.030107034
-0.16354217 0.015888091 -0.16007254 -0.20020741 0.04033272 -0.05151978 -0.12526408 0.17337576
-0.052888807 0.04820599 -0.1097002 0.045958143 -0.021646645 -0.19497973 0.021879625 -0.20522991
-0.16427723 -0.22306298 0.024039758 0.019114431 0.07013205 0.09957869 -0.10026121 0.06927306
-0.18312933 -0.14209966 -0.08258593 0.124281965 0.026219884 0.018612754 0.14989856 -0.113728166
0.07189417 0.11422128 0.021236839 -0.10542916 -0.08976364 -0.16027673 -0.1577199 -0.17128724
0.08190521 0.09050198 -0.18982553 0.080762245 -0.048333474 0.015366706 -0.10227624 0.05573405
-0.18425733 -0.16033769 -0.053882472 -0.09592733 0.006171436 0.026046207 0.08573773 -0.22083886
-0.13246977 -0.052159626 -0.20010199 -0.18509895 0.014289064 0.088726096 0.14814779 -0.18653968
0.089324966 -0.070567764 -0.16540743 -0.082685485 -0.056239754 -0.0034145708 0.09120052 0.04029644
0.027007641 -0.019453388 -0.1498453 0.12533094 -0.20808217 -0.13910562 -0.20168762 -0.17115454
-0.16900076 0.04520052 -0.09585973 0.14698751 0.029884465 0.08601729 0.00077770365 -0.03402445
0.10680063 -0.06659037 0.11378177 -0.18136673 0.033398278 -0.14948906 0.07381935 0.0993525
-0.09978968 -0.0680535 -0.121715285 -0.105422445 0.082650475 0.11717021 0.08155732 -0.036762334
-0.0110574085 0.027880838 -0.2759093 -0.16108106 -0.13780734 -0.34303024 -0.12367243 0.08928868
0.059255596 -0.073603734 0.037292175 -0.27303693 0.13710059 0.029016577 0.0052987365 -0.13835545
-0.18724875 -0.047303695 -0.2501408 0.06473477 -0.023987278 0.21825314 0.15546651 -0.1696171
-0.24055743 -0.26872772 -0.16187944 0.078399196 -0.10054009 -0.10627065 0.022140834 0.26111457
0.12357059 -0.06673782 0.2647444 -0.18033561 -0.1074635 0.18866295 -0.015037614 0.021630831
-0.108946644 0.091096744 0.087862335 0.05946816 -0.09053592 -0.18357916 0.1883749 -0.053341307
0.04057116 -0.23112029 0.21867725 -0.0910638 -0.11513869 -0.027507087 -0.0633404 0.03331614
0.016247608 -0.105640694 -0.07649633 0.19116059 -0.09886295 0.12704611 0.040807445 -0.29883954
-0.2647127 -0.024368431 -0.039415043 0.07599125 -0.24728808 -0.2607077 -0.28292218 -0.05373736
-0.18929487 0.0011800403 -0.20769472 -0.2672871 0.014812988 0.12267187 -0.07139025 0.013708609
-0.09365792 0.15945853 -0.007937544 0.030621264 0.067983925 0.13084984 -0.10331396 0.041372657
-0.08190969 0.02884738 -0.13407265 0.01424459 -0.11543311 -0.19379288 0.1683631 0.26113918
00000000: a22d 32bc 8b57 21be bd2f 393e 0acd c5bc
00000010: 8984 a0bd bac7 0cbc bcf2 d3b9 8000 64be
00000020: 39f4 cc3d 774c ffbd 43bd 593d 80e3 563e
00000030: aac6 e9bd 50b8 9fbd 024f ba3d e5f4 0a3e
00000040: 5ced 2c3e 790b 86be 3a3c 623e 7aaf 4fbd
00000050: 38e4 c33c 8e5a 353d f23a a1bd 8628 a83d
00000060: 4c68 553d f9ba ff3d 4057 0bbd af82 683e
00000070: d0f5 a43c e635 6a3e 3ccc 4fbe 4c61 88be
00000080: b517 7f3d 0e95 143d 17a0 e5bd 9166 1cbe
00000090: 0f2a b3bd d430 94bd 23a7 5abe 4c90 e23d
000000a0: 32fa 35be ec67 fabd e2da 4ebe 2b8b 90bd
000000b0: b38a 03bd da62 ce3c 2500 14be 2901 3abd
000000c0: 56dd 82bd 219d dbbd 0e72 1cbd 15f4 bebd
000000d0: 60fc 03be f675 03be 7518 05be 07a3 f6bc
000000e0: 9977 27be be27 823c 0eea 23be 2c03 4dbe
000000f0: ec33 253d 6806 53bd 3a45 00be 6a89 313e
00000100: efa1 58bd a573 453d 80aa e0bd 9b3e 3c3d
00000110: 4e54 b1bc c4a8 47be e63c b33c ca27 52be
00000120: 4a38 28be 9f6a 64be 07ef c43c de95 9c3c
00000130: 64a1 8f3d eaef cb3d c055 cdbd 09df 8d3d
00000140: 4186 3bbe 9382 11be d022 a9bd 8b87 fe3d
00000150: 15cb d63c c679 983c 027f 193e 50ea e8bd
00000160: 403d 933d d9ec e93d e1f8 ad3c 3eeb d7bd
00000170: 00d6 b7bd 951f 24be 5381 21be ec65 2fbe
00000180: ebbd a73d 1a59 b93d a061 42be ad66 a53d
00000190: 52f9 45bd a3c4 7b3c 3576 d1bd 6349 643d
000001a0: f4ad 3cbe 902f 24be deb3 5cbd 8c75 c4bd
000001b0: c239 ca3b db5e d53c 4397 af3d 9523 62be
000001c0: 28a6 07be 55a5 55bd 89e7 4cbe 948a 3dbe
000001d0: ae1c 6a3c 07b6 b53d 0eb4 173e 4204 3fbe
000001e0: 02f0 b63d d585 90bd 9160 29be 0257 a9bd
000001f0: a85b 66bd fec6 5fbb 57c7 ba3d e10d 253d
00000200: 213f dd3c b65c 9fbc 0c71 19be c156 003e
00000210: 7e13 55be b471 0ebe 3387 4ebe 2343 2fbe
00000220: 890e 2dbe 2e24 393d 1b52 c4bd e583 163e
00000230: 44d0 f43c d529 b03d cfde 4b3a 395d 0bbd
00000240: 4aba da3d 8860 88bd 6b06 e93d 33b8 39be
00000250: a2cc 083d a913 19be 992e 973d 5379 cb3d
00000260: 885e ccbd a25f 8bbd dd45 f9bd b9e7 d7bd
00000270: a744 a93d eff6 ef3d 8607 a73d 1a94 16bd
00000280: 222a 35bc 5b66 e43c fc43 8dbe 6ff2 24be
00000290: 5e1d 0dbe a9a1 afbe f947 fdbd fcdc b63d
000002a0: ffb5 723d 8ebd 96bd aebf 183d 7fcb 8bbe
000002b0: 1964 0c3e 2cb4 ed3c 06a1 ad3b 0dad 0dbe
000002c0: 23be 3fbe 85c1 41bd 7412 80be aa93 843d
000002d0: f880 c4bc c07d 5f3e 9d32 1f3e 1bb0 2dbe
000002e0: b054 76be ae96 89be b9c3 25be c28f a03d
000002f0: f6e7 cdbd 6da4 d9bd b260 b53c cfb0 853e
00000300: 9412 fd3d d7ad 88bd 948c 873e e6a9 38be
00000310: d315 dcbd dc30 413e 5360 76bc 2433 b13c
00000320: 6b1f dfbd ee90 ba3d 2bf1 b33d e394 733d
00000330: e56a b9bd 2dfc 3bbe 5ae5 403e 6a7c 5abd
00000340: f22d 263d ccaa 6cbe eeec 5f3e a87f babd
00000350: d5cd ebbd 8b56 e1bc 9db8 81bd 8176 083d
00000360: b419 853c 265a d8bd 1caa 9cbd 9abf 433e
00000370: a978 cabd 6018 023e b525 273d 7f01 99be
00000380: 6c88 87be 4ea0 c7bc ab71 21bd 4da1 9b3d
00000390: 1639 7dbe 7b7b 85be 2ddb 90be b51b 5cbd
000003a0: 84d6 41be 95ab 9a3a edad 54be dbd9 88be
000003b0: 2db2 723c 643b fb3d 0d35 92bd 139a 603c
000003c0: b9cf bfbd 1949 233e 790c 02bc 72d9 fa3c
000003d0: 283b 8b3d 80fd 053e 4596 d3bd 6076 293d
000003e0: 44c0 a7bd 5751 ec3c 574a 09be 2462 693c
000003f0: 3268 ecbd a471 46be 6067 2c3e 09b4 853e

4.weight f4 [32, 64]
0.101930276 0.084042996 -0.030074628 -0.041130144 0.13136421 -0.06924284 0.09788307 -0.06481294
0.09161758 0.032840043 -0.05499148 0.032342605 0.12896344 -0.0047826273 -0.055992752 -0.011115566
0.07307795 0.0838609 -0.039729733 -0.08789422 0.0002520213 -0.080238074 -0.046130557 -0.016860476
-0.09546291 -0.032592095 -0.041997287 0.072006084 -0.07509936 -0.040891152 -0.06224901 0.07996769
0.061359543 0.032484163 -0.055502623 0.019079372 -0.1016905 0.065733775 -0.09764158 -0.041045528
-0.047081877 -0.06099963 -0.07569671 -0.07492162 0.12536234 -0.07256661 -0.07928763 0.02822481
-0.045994073 0.06318482 0.05113044 0.050053135 0.015521841 -0.072492935 0.026573187 -0.062955
0.011722786 0.023093484 0.13060534 0.12161062 -0.0053254804 -0.05088323 0.09800416 -0.10029732
-0.10185483 -0.115039505 -0.02865751 -0.09081922 -0.049227107 -0.044623453 -0.12272117 0.060626097
-0.12643985 -0.025206296 -0.008430463 -0.068433605 -0.10834623 0.016601922 -0.08831647 0.06849444
-0.043855026 -0.07815367 0.12191073 0.10812673 -0.03865983 -0.0822298 -0.11118439 -0.08373738
0.073706664 0.013067449 -0.081045836 -0.12695567 0.12312956 -0.108642496 -0.12583585 0.048047185
0.0908037 0.06769168 -0.06221171 0.08299135 0.12742999 -0.076800026 0.039199278 -0.022070814
0.05476137 0.041060604 -0.07743018 -0.06818111 0.022692809 0.022040047 0.01471888 -0.009159189
0.02112597 0.04070971 0.094404735 -0.011015991 0.074893706 0.13515574 0.11903484 0.044446807
0.09358251 0.0031246592 0.13486111 0.09528922 -0.017592572 0.02008022 0.008814565 0.068256445
-0.15575801 0.013579766 0.11076338 0.13720335 0.015739474 0.0015487655 -0.044127326 0.079296865
0.08418143 -0.038286127 -0.045040507 -0.012967462 0.0028775828 0.1389364 -0.07842242 0.020008516
0.041442614 0.0985664 0.11808487 -0.012339116 0.058695626 -0.066775225 -0.088896796 -0.12857635
0.0785756 -0.095462844 -0.02473861 -0.052749973 -0.09579587 0.01338115 -0.0011364536 -0.08119467
-0.09103308 -0.043159172 0.06411435 0.083861984 -0.04681229 0.13497421 -0.04086794 -0.13024454
0.07735107 0.09249892 -0.009724885 0.06515802 -0.07525717 -0.063791595 -0.17577715 0.105137795
-0.05446408 -0.08744558 -0.10947241 -0.027973162 -0.12564442 0.06985858 0.101755306 0.020367732
-0.00675898 -0.049567934 0.051972125 -0.037821565 -0.00035382877 0.13864213 0.11410999 0.07121663
0.13335498 -0.05883331 0.0015183715 -0.069509014 0.12582013 -0.033954054 0.0731586 0.05580888
0.111914605 0.11182264 0.091800824 -0.07790372 -0.1078832 0.11267609 0.0086793 -0.10315659
-0.086342126 0.122101285 -0.029437734 0.004891701 -0.057309855 -0.05491454 0.077155836 -0.045509763
-0.06826954 0.013168741 0.12629662 -0.068587676 0.044740546 0.0077293287 -0.09713305 0.10750659
0.04348149 -0.06618037 -0.07287656 -0.08306024 0.011061929 0.025924893 0.035388235 -0.046804704
-0.044815034 -0.072160795 0.01183488 -0.066468544 -0.063625626 -0.06418309 -0.026004236 0.071391515
0.073351696 0.036797363 -0.05960077 0.12684211 0.047854237 -0.06092752 -0.052439988 -0.0633164
0.13567027 0.115896195 -0.09911263 -0.104222074 -0.030336322 -0.032349072 -0.04392873 -0.039593365
00000000: d2c0 d03d bc1e ac3d 115f f6bc 1578 28bd
00000010: 5784 063e 31cf 8dbd eb76 c83d a6bc 84bd
00000020: ffa1 bb3d 4883 063d bf3e 61bd ae79 043d
00000030: fe0e 043e 96b7 9cbb a858 65bd 101e 36bc
00000040: e4a9 953d 43bf ab3d a5bb 22bd e301 b4bd
00000050: ba21 8439 dc53 a4bd 65f3 3cbd fb1e 8abc
00000060: 0f82 c3bd 4a7f 05bd 5905 2cbd ed77 933d
00000070: b1cd 99bd 7b7d 27bd d1f8 7ebd 1ac6 a33d
00000080: 2554 7b3d 1d0e 053d b856 63bd 584c 9c3c
00000090: 1c43 d0bd 6e9f 863d 4ff8 c7bd 5b1f 28bd
000000a0: edd8 40bd bfda 79bd e006 9bbd 8270 99bd
000000b0: fc5e 003e ce9d 94bd 8e61 a2bd b737 e73c
000000c0: 4864 3cbd 0b67 813d 276e 513d 8404 4d3d
000000d0: 524f 7e3c 2d77 94bd 03b0 d93c 8dee 80bd
000000e0: ee10 403c 8c2e bd3c 68bd 053e fd0e f93d
000000f0: 5e81 aebb ef6a 50bd 68b6 c83d ae68 cdbd
00000100: 4499 d0bd d599 ebbd 28c3 eabc 6dff b9bd
00000110: 5da2 49bd 15c7 36bd 3d55 fbbd 1253 783d
00000120: 7379 01be 6f7d cebc ed1f 0abc eb26 8cbd
00000130: a1e4 ddbd c100 883c 44df b4bd d046 8c3d
00000140: 54a1 33bd 080f a0bd 55ac f93d 8c71 dd3d
00000150: c559 1ebd 1968 a8bd a4b4 e3bd 817e abbd
00000160: 85f3 963d db18 563c 5cfb a5bd ab00 02be
00000170: 5a2b fc3d f57f debd 1ddb 00be 20cd 443d
00000180: 4af7 b93d efa1 8a3d b5d1 7ebd 5ef7 a93d
00000190: 027d 023e 5549 9dbd 6c8f 203d dacd b4bc
000001a0: 754d 603d 2a2f 283d b793 9ebd 8aa2 8bbd
000001b0: 45e6 b93c 548d b43c 7527 713c 6c10 16bc
000001c0: 5f10 ad3c 3abf 263d 4557 c13d 6a7c 34bc
000001d0: df61 993d 4466 0a3e 8ac8 f33d db0d 363d
000001e0: 30a8 bf3d 15c7 4c3b 0819 0a3e ff26 c33d
000001f0: 4c1e 90bc 467f a43c f76a 103c 09ca 8b3d
00000200: 077f 1fbe ab7d 5e3c e9d7 e23d 097f 0c3e
00000210: 12f0 803c f2ff ca3a dbbe 34bd 6566 a23d
00000220: 5067 ac3d ead1 1cbd 657c 38bd 7a75 54bc
00000230: d495 3c3b 5845 0e3e ef9b a0bd e6e8 a33c
00000240: bbbf 293d 2edd c93d 7bd6 f13d 012a 4abc
00000250: d36a 703d 73c1 88bd 860f b6bd 85a9 03be
00000260: 3fec a03d 0682 c3bd a0a8 cabc 5b10 58bd
00000270: a030 c4bd 9c3c 5b3c 0ef5 94ba 6449 a6bd
00000280: 8d6f babd acc7 30bd 624e 833d d5bf ab3d
00000290: 3ebe 3fbd ae36 0a3e 2465 27bd d35e 05be
000002a0: 3d6a 9e3d 1370 bd3d 2055 1fbc 9171 853d
000002b0: 6e20 9abd 2ba5 82bd edfe 33be 7c52 d73d
000002c0: ba15 5fbd ab16 b3bd 1233 e0bd f927 e5bc
000002d0: eea8 00be 0412 8f3d 1665 d03d 3bda a63c
000002e0: 6f7a ddbb bf07 4bbd b9e0 543d c9ea 1abd
000002f0: 1882 b9b9 34f8 0d3e 80b2 e93d 06da 913d
00000300: 358e 083e 32fb 70bd 1804 c73a be5a 8ebd
00000310: fed6 003e 6813 0bbd 2dd4 953d da97 643d
00000320: 7c33 e53d 4503 e53d 1202 bc3d fc8b 9fbd
00000330: def1 dcbd b9c2 e63d 9f33 0e3c c343 d3bd
00000340: 24d4 b0bd 3d10 fa3d 6727 f1bc 904a a03b
00000350: bdbd 6abd 12ee 60bd e103 9e3d 7268 3abd
00000360: e7d0 8bbd b4c1 573c e753 013e b277 8cbd
00000370: dd41 373d 4f46 fd3b b1ed c6bd 6a2c dc3d
00000380: a619 323d 9389 87bd 4e40 95bd 7d1b aabd
00000390: 183d 353c 7160 d43c 41f3 103d 4ab6 3fbd
000003a0: f88f 37bd 0ac9 93bd 16e7 413c a920 88bd
000003b0: 274e 82bd 6d72 83bd d606 d5bc b735 923d
000003c0: 6a39 963d d5b8 163d f01f 74bd e6e2 013e
000003d0: ce02 443d 238f 79bd 50cb 56bd 07ac 81bd
000003e0: 26ed 0a3e fc5a ed3d 90fb cabd 6272 d5bd
000003f0: e183 f8bc 7680 04bd 9dee 33bd a72c 22bd

6.weight f4 [1, 32]
-0.010548061 0.00143437 0.04379206 0.0013225767 0.0058684824 0.018685834 -0.008964244 -0.0029596644
-0.0048962855 0.007891197 0.0023370236 -0.43390688 -0.03765003 0.01757044 0.12439751 -0.022929676
0.008336709 0.02934104 -0.00022236606 0.011664039 0.021249173 -0.063226506 -0.04679068 -0.01237862
0.006857305 0.012867293 0.09882679 -0.005865008 0.6171822 0.15991265 -0.047350287 -0.040170517
00000000: c6d1 2cbc 7801 bc3a 4e5f 333d 4f5a ad3a
00000010: 664c c03b 0913 993c c4de 12bc eef6 41bb
00000020: 0571 a0bb 144a 013c c028 193b 0b29 debe
00000030: eb36 1abd e2ef 8f3c 1fc4 fe3d 04d7 bbbc
00000040: b196 083c 9f5c f03c ef2a 69b9 871a 3f3c
00000050: bf12 ae3c e67c 81bd 96a7 3fbd b2cf 4abc
00000060: 3eb3 e03b 57d1 523c b365 ca3d 412f c0bb
00000070: a7ff 1d3f 24c0 233e 60f2 41bd d789 24bd
