Data/Neural Network/two_player_B.pt (torch, 9863 bytes, 3 tensors)

0.weight f4 [32, 32]
00000000: 24ad cebd e9d6 1e3e 1a62 aabd 737d a1bb
00000010: 0a26 f5bd 9db5 443d f464 e5bc 72c0 15be
00000020: eeb8 2bbe bda0 333d 9bdf 113d 4520 583c
00000030: 919c babd ff79 df3b 86c5 79bd 3502 89bd
00000040: 19a2 03bd f82a 0abe fe59 ed3d c7aa 0ebe
00000050: 131b 733d 0760 27be 4d32 36bd 6b4a 0b3e
00000060: 7da5 cdbc 32e3 0bbe 1e93 21be 7626 ae3d
00000070: baba a43c 920f a93d c58b 71bd 6385 e2bd
00000080: 0c6c 333d ce94 20be a81a 6abd ab95 0ebe
00000090: c8f5 9d3d a161 f3bc 47bf ccbd b7a3 fdbd
000000a0: 7df2 7cbd 51f3 2c3e 5246 9d3d 3b6f f73d
000000b0: ab0c 133e 8527 10be adc7 34be dc9e 25bd
000000c0: 9b1c 29be b020 bebd 527d 3cbd 8232 2a3e
000000d0: 0602 4dbb b245 b03d 86a1 a2bd 10d1 f53c
000000e0: 9593 ec3d daeb 2a3e d7fd a33d c2f6 2b3b
000000f0: 755b 463d 3932 b53d b550 14bc 1530 11be
00000100: 2538 813d 3b2c 2d3e 4176 293d c027 c13d
00000110: 8118 7c3d 423a a23c a3aa d13d c057 15be
00000120: 2a27 243e 02bc dbbd 8db9 743d 6488 dc3d
00000130: 4bec dd3d 9918 e8bd 17a5 bf3d 115c ab3d
00000140: 4791 a93d 49e9 2e3e de45 ac3d fb81 80bd
00000150: fc53 d5bd 2fcf fc3d d158 a63d c8eb f3ba
00000160: b76d b9bd d6a6 673d 4953 a9bd 0068 13bd
00000170: d673 ed3d 785f f8bd 5929 91bd e57d 99bd
00000180: 855b f3bd 23eb 28be 3890 623d b7e9 b8bd
00000190: 8e49 033e 03d1 083e a1bd 163d 60fd 0abd
000001a0: 33b5 063e e01f 8c3b 6143 0cbe 17e6 053e
000001b0: 3784 19bd f499 c23d 5761 e3bd 2d56 f3bd
000001c0: e331 093e b681 d4bb 08df 723d e6a1 19be
000001d0: e4de a93d b561 d9bc 81a5 54bb 9b4f 02bd
000001e0: 4ccd 25bc 4385 33be 0229 b23d b6f0 e2bd
000001f0: 8524 aebc 946d 5abc 36dd c43d df1d 1fbe
00000200: 36bb 2dbe ccd6 3c3d b8f9 b4bd 4541 6cbd
00000210: 3bff 50bd 8b31 353c dc49 19be a3de 183e
00000220: 972b db3d 7501 03bd 9856 f23d 59d4 df3d
00000230: 8b24 8b3a 98d3 363d 52bd b13d da6c 683d
00000240: 0bb1 493d 0cee 33bb 2b55 85bd 9ed7 773c
00000250: 56c1 f43d 7def 603d ed6e 4b3d 953d a63c
00000260: a2d1 78bd f69b ceba 696b c3bd 6586 1b3d
00000270: 2a0b 7e3d 6414 8abd 3aba e4bd 9ba6 cb3d
00000280: 007c c5bd 4c06 08be 4853 15be b664 02be
00000290: 3db1 d7bd 7e35 093d 3b7a 6bbd c4a3 d33d
000002a0: b3bc 23be d086 e43d 3379 933d fc60 053e
000002b0: 1a29 933d dc53 15be 5acb f33b 2f54 163d
000002c0: 5109 9b3d ccc3 7f3d b8bd 2abe dc6c 01bc
000002d0: df7f ccbd 0760 86bb 34c2 e9bd 00cc cbbd
000002e0: 6b20 183e 81b4 d53c 3ae0 07be 023a 103e
000002f0: ee89 bb3d 05ac e73d 61b9 54bd 5227 18be
00000300: 6936 fdbd f094 19be c432 313e 88b8 ab3c
00000310: 06c9 3ebd c748 2ebd 7c3d fd3d 2e37 a0ba
00000320: 4c3d 2e3e 0ae6 75bc f477 11bd 4645 aabc
00000330: 3daa 6ebd b8ad f2bd e390 213e 4854 443c
00000340: 0aa3 23bd 56a1 bcbd 897d ef3d 0cb7 7ebd
00000350: f130 57bd 3a2a f0ba d978 0e3c 949c 1e3c
00000360: d8ae 8a3d f32f f5bd 9906 2e3d 0e2f 253e
00000370: f3b5 ecbd 4516 133e ba4a 2dbd 09af 06be
00000380: 7c92 1fbd a3ab 15be d9fd 15bd 02a4 abbd
00000390: 5257 33be 4388 f2bd 0ee2 203e fbb8 283c
000003a0: fdd1 0d3b 3f77 91bd 4cc2 8abd 5186 56bd
000003b0: 84c7 c0bb fc6c 40bd 8017 a2bb 1985 fcbd
000003c0: 25dc 8b3d 8778 913b bd91 403d 3614 87bc
000003d0: b950 75bd dd41 00be 3db8 f9bc badd d53d
000003e0: 6ea4 15be 507f 153d ca45 1f3e 63db 8f3d
000003f0: 88e9 ae3b 15c5 023e 97c5 3fbd 30d6 11be
-0.10091618 0.15511669 -0.08319493 -0.004928285 -0.11970146 0.048024762 -0.02800224 -0.14624193
-0.16769764 0.043854464 0.035613637 0.013191287 -0.09111894 0.006819963 -0.06097939 -0.06689874
-0.03213701 -0.13492954 0.1158943 -0.13932334 0.05935199 -0.16345225 -0.044481564 0.13602607
-0.025103325 -0.13660887 -0.15778777 0.085034296 0.02010857 0.08254923 -0.058971185 -0.11060598
0.043804213 -0.15681764 -0.057154328 -0.13924281 0.07712895 -0.029709639 -0.09997421 -0.12384742
-0.061754692 0.16889693 0.07679428 0.120817624 0.14360301 -0.14077576 -0.17654295 -0.040434703
-0.16514818 -0.092835784 -0.046017952 0.1662083 -0.0031281724 0.08607043 -0.079409644 0.030006915
0.115515865 0.16691533 0.080074005 0.0026239608 0.048427064 0.0884747 -0.009052445 -0.14178498
0.06309537 0.16911404 0.04137254 0.0943141 0.061546806 0.01980317 0.102376245 -0.14584255
0.16030565 -0.10729219 0.059747268 0.10768202 0.10836085 -0.11332817 0.0935766 0.0836717
0.082796626 0.17081179 0.084117636 -0.06274792 -0.104164094 0.12344205 0.08122409 -0.0018609697
-0.090541296 0.05655559 -0.082678385 -0.035987854 0.115943596 -0.12127584 -0.070879646 -0.074947156
-0.1188269 -0.16495948 0.05531332 -0.090289526 0.12821028 0.13360982 0.036801938 -0.033933043
0.1315506 0.0042762607 -0.13697578 0.13076054 -0.037479606 0.095020205 -0.111025505 -0.11881671
0.13397937 -0.0064851893 0.05929473 -0.15003166 0.08294466 -0.026535848 -0.003244728 -0.0318142
-0.010119747 -0.17531304 0.08699228 -0.11081068 -0.021257648 -0.0133317895 0.09612505 -0.15538739
-0.16965947 0.046103284 -0.088366926 -0.057679433 -0.051024657 0.011059175 -0.14969581 0.14928679
0.107016735 -0.03198381 0.11832923 0.10929174 0.0010615749 0.044635385 0.08678688 0.056744434
0.049241107 -0.002745512 -0.06510385 0.015127091 0.119509384 0.054915894 0.049666334 0.020293036
-0.060746796 -0.0015763033 -0.09541971 0.037969965 0.062022366 -0.067421705 -0.111683324 0.09943887
-0.09642792 -0.13283652 -0.1458255 -0.1273373 -0.105318524 0.03349828 -0.057489615 0.1033397
-0.15989952 0.11158526 0.07200851 0.13025278 0.07185574 -0.14582771 0.007440013 0.036701377
0.07570136 0.062442586 -0.16673934 -0.007899489 -0.09985327 -0.004100803 -0.114139944 -0.09951019
0.14856116 0.026087048 -0.1326913 0.14084628 0.091571674 0.11312107 -0.051934604 -0.1485875
-0.123638935 -0.14998221 0.17304522 0.020962015 -0.04657843 -0.042549875 0.12365243 -0.0012223476
0.1701557 -0.015008459 -0.035514787 -0.020784985 -0.05826782 -0.118495405 0.15777926 0.011982985
-0.039950408 -0.0921046 0.11693866 -0.062186286 -0.05253691 -0.0018323131 0.0086958045 0.009680886
0.0677163 -0.11972036 0.04248676 0.16131231 -0.115581416 0.14363964 -0.042307593 -0.13152708
-0.038958058 -0.14616255 -0.03661904 -0.083808914 -0.17513779 -0.11842396 0.15711233 0.010298009
0.0021640055 -0.071028225 -0.067753404 -0.052374188 -0.005883159 -0.046978936 -0.004946649 -0.12330074
0.068290986 0.004439417 0.047013987 -0.01648913 -0.059891436 -0.12525125 -0.03048336 0.104426816
-0.14613506 0.036498368 0.15553966 0.070242666 0.0053378977 0.12770493 -0.046819296 -0.14241862

2.weight f4 [32, 32]
00000000: 9513 ac3d d6e7 1bbe 8eaf a73d f3f8 2abe
00000010: 1f89 1cbd 51c3 bcbd 76ef 45bd 8a4c 0abd
00000020: 01e1 283e ed41 053e eecd 90bd 8846 ef3d
00000030: b72e ec3a 3ecb 14bd 4cb4 c33d e120 a53d
00000040: d8b1 013d ff44 ddbd b69f 0d3e e4b1 083e
00000050: fa1c 59bd 0e9e 1ebd c690 8f3b e86f df3d
00000060: b689 b73d dbd8 48bc 2bfc 20be 6bf1 e8bd
00000070: 3478 31bd 0ca7 13be df44 44bd c7cd 183e
00000080: 8cf3 f7bd d053 fa3d 813d 443c 80e7 0f3e
00000090: 8092 043e 7c0e ba3c 234e 2d3d 3d52 f13d
000000a0: 0d8c 303e 4cb8 0e3e b747 903d 8b29 9bbd
000000b0: 6643 153e 09ed b13b 57e1 f5bd 519e 333e
000000c0: 9ab0 313e 45da 293e e6d5 52bc 3594 f8bd
000000d0: be63 dcbd e53d 27bd b3a0 143e 03d0 5cbd
000000e0: ab3c 1e3d 96f0 1cbe 73d3 b73d 3ced 113e
000000f0: e0cc 2d3e 5e60 69bd 9e7f 053e 6a1c 103e
00000100: 16ac de3d fb2f 33bd 6550 bdbd 9919 153e
00000110: 55bb 033e 309d bb3d c55f f4bd 48dc 013e
00000120: c8fe 303e b579 6e3d da7e 8ebd 5e00 f03d
00000130: f12d 30bc ac21 503d 2395 fcbd bc57 02bd
00000140: d249 4abd cbeb adbd 5341 10bd 3ecd 053e
00000150: 2098 fcbd bfa0 f5bd 39c1 e2bd 3e99 d43d
00000160: 7588 2a3e ef2c 893d 1a8e 09be 774a 083e
00000170: 15d6 25bb 4629 813d e551 c43c 8cd8 00be
00000180: d469 6f3d 4945 b7bb 578f 833c b7f1 6abd
00000190: 8183 cfbc c30e b83d 6986 2cbe 14c4 de3c
000001a0: f216 d63d 60e4 183e dbb2 b0bd c943 a63d
000001b0: 001c 05be 7b96 8abd 67df c53d 4544 a4bd
000001c0: 262a 02be 5811 3abe b17f 933d 4f27 203e
000001d0: da12 0fbe cbae 30bd 4780 afbd 134b a5bd
000001e0: e5fd fa3d e6ac 0fbd 11ce 203e 01e8 213e
000001f0: 7b77 083e 6be8 ddbd 666a 0b3d cdc3 ad3c
00000200: 8359 fa3d eaa0 093e 6ed3 093e 1f75 03be
00000210: b89e 133e 57a7 ca3d a3b2 b53d 14b2 0a3e
00000220: eef2 493d 50d3 d93d 2a1f 52bd b20a d63d
00000230: ac33 8fbd 8e56 e83d c3ca 2e3e 6f1e d63d
00000240: 3e12 eabd 0437 d93d 93f5 7c3d cf9b f2bd
00000250: 6f94 333e 3ecd a63d b0cc 813d 9949 0c3e
00000260: 6cd0 a23a 4fec 13be 275b 49bc ac96 93bd
00000270: 80ac 7fbc 980f 253e b257 1d3c 920b 1b3e
00000280: 7971 fabd dec5 6cbd 76a2 d33d a5d2 f93d
00000290: a0ee 0f3e 41e0 673d 487c 85bc 758c c03d
000002a0: 598b 2abe 2dd9 c9bd 470b e9bc 7b5f 8c3c
000002b0: a4c4 bbbc 67fd efbc 28e6 2d3d e0a3 babb
000002c0: b257 043d c428 bbbd 2c46 e53d 484f 4fbb
000002d0: acf2 1f3e dc7a ebbd 5b37 923d ee98 683d
000002e0: 88cc c3bd 02f5 ec3d 1182 103e 6590 a13c
000002f0: 3351 59bd 4011 f33b a297 2cbe a9ac 16bd
00000300: 9f63 b83d 4baa 323e fa09 5e3c b1c1 a13d
00000310: b3ce 4a3d 731e 803d 8f9d bdbd 502d 983c
00000320: 9f32 e6bd 265a 333e 6c9c 243e 21cc e73d
00000330: 71b5 7ebd e579 0f3e 6dd3 04bc 5eeb 0a3e
00000340: c5a6 fb3d 9a64 1fbe ebe8 21bc 6597 debd
00000350: 0fe3 033c e850 0ebe 62c1 2f3e d971 06be
00000360: cc4f 1fbe 73fb 14be 2d5d 0b3e 2b91 c33d
00000370: b1fa 33be 7882 2f3e 2894 033e 3927 a83c
00000380: caa7 b0bd 11df 5fbc 1e1a cd3d 16df d0bd
00000390: 67a3 613c 3284 ec3c 593f 7cbb 6cfa 0d3d
000003a0: 28dc c13d d2be 14be fdeb 4c3d ee4e 49bc
000003b0: 117e 8c3c 5a3f 723d fc82 f8bd 6330 88bd
000003c0: 2cbd 1c3e f7b3 1abe 1d09 8cbc 410f c63d
000003d0: aa1c 18bd cc34 943d cb3a c93d d1ff cabc
000003e0: d5cd c8bd 36cc 34be 6cc8 ddbd 9965 7f3d
000003f0: a8da 373e 90b1 50bd 0941 c93d 1eda 63bd
0.084021725 -0.15225157 0.08187781 -0.16696529 -0.038216706 -0.09216941 -0.04832407 -0.0337644
0.16492082 0.1301343 -0.07070528 0.11683375 0.0018019293 -0.03632664 0.09555873 0.08062912
0.031663746 -0.108041756 0.13830456 0.1334911 -0.05300615 -0.03872495 0.004381272 0.10910016
0.08961813 -0.012258734 -0.15721194 -0.11374172 -0.043327525 -0.14419192 -0.047917243 0.14922248
-0.12107 0.12223017 0.011977554 0.14053154 0.1294651 0.022711985 0.042310845 0.11783264
0.17240925 0.13937491 0.070449285 -0.07576283 0.14576492 0.005429868 -0.12005871 0.17540862
0.17352524 0.1658717 -0.01286838 -0.12137643 -0.10761212 -0.04083051 0.14514427 -0.053909313
0.038632076 -0.15326151 0.089758776 0.14250654 0.16972685 -0.05697667 0.13036963 0.14073339
0.108726665 -0.04374693 -0.0924385 0.14560546 0.1286443 0.091608405 -0.11932329 0.12681687
0.17284691 0.058221538 -0.06957789 0.1171882 -0.010753141 0.050813362 -0.12333133 -0.03182195
-0.049386807 -0.084922396 -0.035218548 0.13066575 -0.12333703 -0.119935505 -0.110720105 0.10380791
0.16653617 0.066980235 -0.13433114 0.13309656 -0.0025304605 0.063067004 0.023964832 -0.12582606
0.058450535 -0.005592976 0.01605956 -0.057359423 -0.02533126 0.089871906 -0.16848148 0.027193107
0.10453595 0.14930868 -0.08627864 0.08118398 -0.12998962 -0.06766983 0.09661751 -0.08020834
-0.12711391 -0.18170679 0.072020896 0.15639995 -0.13972035 -0.043135446 -0.08569389 -0.0807096
0.12255458 -0.035077 0.15703608 0.15811159 0.13326828 -0.10835346 0.034037016 0.02121153
0.12224104 0.1344029 0.1345956 -0.12837647 0.14416015 0.09895199 0.08871963 0.13544494
0.04930394 0.10636008 -0.05129925 0.10451259 -0.069922775 0.11344634 0.17069535 0.104550235
-0.11429261 0.106061965 0.061757635 -0.118461244 0.17537092 0.081446156 0.06337869 0.1369995
0.0012421734 -0.14445613 -0.012289799 -0.07206473 -0.015605092 0.1611923 0.009603428 0.15141132
-0.122286744 -0.05780589 0.10333721 0.121983804 0.14055872 0.05661035 -0.016294613 0.0940179
-0.1665472 -0.09855876 -0.02844776 0.017135372 -0.022920914 -0.029295636 0.042455822 -0.005695805
0.032310195 -0.09138635 0.11195025 -0.0031632949 0.15619916 -0.11498043 0.071394645 0.05678647
-0.095604956 0.11570169 0.14112116 0.019722173 -0.053055953 0.007417828 -0.16854718 -0.036785755
0.09003376 0.17447774 0.013552183 0.07898272 0.04951353 0.06255808 -0.092585675 0.018576294
-0.11240124 0.17514858 0.16075295 0.113182314 -0.062184755 0.14011343 -0.008107048 0.13566348
0.12287668 -0.1556572 -0.009882192 -0.1086872 0.00804974 -0.13898051 0.17163613 -0.13129367
-0.15557784 -0.14549045 0.13609762 0.09549173 -0.175761 0.17139614 0.12849486 0.020526515
-0.08625753 -0.013664023 0.10014747 -0.101988 0.013771868 0.02887163 -0.0038489907 0.03466265
0.094658196 -0.14525917 0.050029743 -0.012286885 0.017149957 0.059142448 -0.12134358 -0.06649854
0.15306538 -0.15107714 -0.01709419 0.09670878 -0.03713671 0.07236633 0.09825667 -0.024780186
-0.09804884 -0.17656025 -0.10829243 0.06235275 0.17954504 -0.050950587 0.098268576 -0.055627935

4.weight f4 [1, 32]
00000000: 3cb1 82be 53ca ecbe 1702 03be 9f3b 32bd
00000010: f3fd 43be eae2 39be 7b11 d6bd 2d41 59be
00000020: 2a4d b2be ec6b 2ebe 44bb 98be af3a 85be
00000030: 5384 60be 4787 b4bd e71e 09be a011 8dbe
00000040: 5b57 bfbe 05f1 31be 9174 79be 3545 27be
00000050: 8d58 cbbe a49a 95bd 2d56 a8bd 32aa 96be
00000060: df3c 73be 1267 bdbe c143 a3be dbc0 91be
00000070: 8c01 1ebe 8789 b9be 197e 2ebe c8c0 aabe
-0.25525844 -0.4624811 -0.12793766 -0.04351389 -0.19139843 -0.18152967 -0.10452553 -0.21216269
-0.34824497 -0.17033356 -0.29830372 -0.26021335 -0.21925478 -0.088148646 -0.13390695 -0.2755251
-0.37371334 -0.17377098 -0.24360873 -0.16334994 -0.39715996 -0.07304886 -0.08219562 -0.29426724
-0.23753689 -0.369927 -0.3188763 -0.2846745 -0.15430278 -0.36237738 -0.1704029 -0.33350205
